models/example_model.pth (torch, 788982 bytes, 155 tensors)

embedding.weight f4 [15, 16]
0.0 0.0 0.0 0.0 0.0 0.0 0.0 0.0
0.0 0.0 0.0 0.0 0.0 0.0 0.0 0.0
-0.78551 -0.7649832 0.15483855 2.1798375 1.8595527 0.6593666 1.4830163 -0.09573637
-0.38434708 -1.0225236 -1.3508075 -1.3144784 -0.43172503 -1.4164871 0.62413436 -1.2284118
0.46520773 -0.65845895 -0.6021124 -0.76726806 -1.5712622 -0.17884043 -0.5571541 -0.32578155
0.22316177 -0.49449503 -1.3752913 0.30049837 -0.03538068 -0.41098323 0.18835317 -2.1688893
-0.27378178 -1.7855947 0.16257878 -0.11014203 0.015543463 0.01754195 -0.46180925 -0.68843514
-0.73824847 -0.8663797 -1.1990126 0.05499885 -0.20382082 -0.16642487 -0.89797145 -1.3988172
-0.6696137 -0.24176435 -0.11267318 -0.6604931 -0.11905189 -0.3098406 -1.5746255 -0.8876108
-0.53266513 1.3335884 0.95348495 -0.02467709 0.99489933 0.075514175 1.4942975 -0.5896283
-1.5377797 0.8665144 -0.9667869 -0.8391304 -0.22492146 -2.4526887 -1.1054633 -0.9139057
0.07104641 0.8948593 0.8061529 1.0186253 -0.73814094 1.566581 -0.98699415 -1.3666999
0.51163304 -0.08490814 -0.8118897 -0.3765513 -2.5647335 0.5791894 -0.1067189 0.19555277
-0.36569417 -0.7944759 1.4071069 0.9679143 -0.6989374 1.5570081 1.0266327 0.5726505
0.07193931 -1.1222351 -0.38193694 0.557203 -0.17289117 -0.85653186 -1.797634 1.755534
0.07189753 -0.48993814 -1.3500471 0.7745242 -1.614854 -0.3265144 -1.4307486 -1.1239392
0.27706522 -0.94053155 0.084106684 0.5911357 0.01402198 -0.5281296 0.031721175 -0.7305165
0.17084962 0.35333213 0.19722731 1.4670041 -0.5416119 0.81607985 -0.4537473 -2.2405386
-2.2938197 -0.6780447 -0.3817916 -0.9406838 -0.29545805 -0.26507103 -0.27199444 1.0539137
-0.81739265 1.2215842 1.9053663 -0.05391389 -0.5623702 1.0739622 0.90217084 2.3965077
-0.18922965 -0.7679799 0.47336492 0.24052243 0.2689415 -1.3992609 -1.6609077 1.201188
-0.4441114 0.009950576 -0.3729473 2.5724607 0.6925802 -0.35782948 0.19806163 -1.9704853
-1.1620549 -0.7533287 -1.5811373 0.6130695 0.37875843 0.104370266 0.03365957 -1.4518725
-0.049491636 0.38939938 0.05366661 0.64019066 -2.8982584 -0.047375955 -1.4554995 0.99006367
0.5508465 -2.825851 -0.46831322 1.0843818 0.5369427 0.5089424 0.1312689 -1.5472326
-1.4982778 -0.24599656 -0.886311 -1.0224723 0.19462258 -1.8056685 0.070478015 -0.7930989
0.2664286 0.9279828 1.0832276 -0.4530804 0.32180205 1.114043 0.3475161 0.70802224
-0.28419706 0.45997706 -0.6603373 -0.05748474 1.71191 -1.2418945 -0.45136887 1.9212
0.6803908 0.5600005 -0.2893786 0.6707821 1.8415678 1.7880087 -1.4773004 -0.8057804
0.23872499 0.52359354 -1.0806803 1.7717757 0.6888947 -0.13510637 -0.25563776 -0.0611085
00000000: 0000 0000 0000 0000 0000 0000 0000 0000
00000010: 0000 0000 0000 0000 0000 0000 0000 0000
00000020: 0000 0000 0000 0000 0000 0000 0000 0000
00000030: 0000 0000 0000 0000 0000 0000 0000 0000
00000040: 2f17 49bf f0d5 43bf ff8d 1e3e 7582 0b40
00000050: d305 ee3f 40cc 283f 7ad3 bd3f 6e11 c4bd
00000060: 24c9 c4be 0ee2 82bf 43e7 acbf d440 a8bf
00000070: 100b ddbe 734f b5bf 45c7 1f3f 993c 9dbf
00000080: b52f ee3e c490 28bf 0a24 1abf ae6b 44bf
00000090: 1f1f c9bf f221 37be a7a1 0ebf d7cc a6be
000000a0: 8584 643e 742e fdbe 8c09 b0bf ecda 993e
000000b0: 55eb 10bd 656c d2be a7df 403e 15cf 0ac0
000000c0: 202d 8cbe 5e8e e4bf 0d7b 263e 2592 e1bd
000000d0: 02aa 7e3c 23b4 8f3c 4372 ecbe 493d 30bf
000000e0: dafd 3cbf 0fcb 5dbf 3f79 99bf 7946 613d
000000f0: 68b6 50be 486b 2abe 75e1 65bf 710c b3bf
00000100: ce6b 2bbf 1391 77be 32c1 e6bd 1316 29bf
00000110: 7ad1 f3bd 6da3 9ebe 548d c9bf 763a 63bf
00000120: be5c 08bf 06b3 aa3f 9717 743f 9c27 cabc
00000130: b9b1 7e3f 2da7 9a3d 2445 bf3f e1f1 16bf
00000140: f7d5 c4bf e3d3 5d3f 597f 77bf 40d1 56bf
00000150: d051 66be daf8 1cc0 d27f 8dbf b9f5 69bf
00000160: c880 913d 8015 653f 0960 4e3f 5062 823f
00000170: cef6 3cbf ba85 c83f a6ab 7cbf 06f0 aebf
00000180: 62fa 023f 52e4 adbd 01d8 4fbf 55cb c0be
00000190: 9824 24c0 c245 143f 708f dabd fc3e 483e
000001a0: 443c bbbe c662 4bbf 141c b43f 3bc9 773f
000001b0: 90ed 32bf 0b4c c73f b368 833f 3999 123f
000001c0: eb54 933d 66a5 8fbf 3d8d c3be dba4 0e3f
000001d0: 620a 31be ac45 5bbf df18 e6bf 57b5 e03f
000001e0: 033f 933d 2cd9 fabe 58ce acbf 3847 463f
000001f0: 89b3 cebf e52c a7be c522 b7bf 3ddd 8fbf
00000200: 7edb 8d3e adc6 70bf 2040 ac3d ab54 173f
00000210: 72bc 653c 8033 07bf 10ee 013d 2103 3bbf
00000220: 34f3 2e3e f3e7 b43e f5f5 493e cac6 bb3f
00000230: 14a7 0abf 9cea 503f 9151 e8be fc64 0fc0
00000240: f1cd 12c0 5694 2dbf 307a c3be a7d0 70bf
00000250: 4746 97be 64b7 87be db42 8bbe a5e6 863f
00000260: a540 51bf df5c 9c3f 0be3 f33f d0d4 5cbd
00000270: 7ef7 0fbf 9877 893f abf4 663f 6260 1940
00000280: 6bc5 41be 559a 44bf e35c f23e 834b 763e
00000290: b3b2 893e fb1a b3bf a098 d4bf 87c0 993f
000002a0: 9262 e3be be07 233c f3f2 bebe 32a3 2440
000002b0: f04c 313f 6d35 b7be abd0 4a3e dd38 fcbf
000002c0: 37be 94bf 26da 40bf b562 cabf 1ff2 1c3f
000002d0: a0ec c13e 14c0 d53d 9ede 093d f5d6 b9bf
000002e0: beb7 4abd 5b5f c73e 85d1 5b3d 89e3 233f
000002f0: 117d 39c0 4a0d 42bd cf4d babf d074 7d3f
00000300: 4704 0d3f beda 34c0 c0c6 efbe 06cd 8a3f
00000310: 1475 093f 0d4a 023f 5b6b 063e b80b c6bf
00000320: 91c7 bfbf 86e6 7bbe 47e5 62bf 5fe0 82bf
00000330: 244b 473e 2520 e7bf c756 903d 8808 4bbf
00000340: 5469 883e 4890 6d3f 34a7 8a3f 27fa e7be
00000350: 3dc3 a43e f698 8e3f a1ed b13e f240 353f
00000360: 4782 91be 1d82 eb3e de0b 29bf 1e75 6bbd
00000370: de1f db3f 66f6 9ebf d219 e7be e2e9 f53f
00000380: 172e 2e3f 315c 0f3f 6f29 94be 60b8 2b3f
00000390: 7eb8 eb3f 78dd e43f 2e18 bdbf a047 4ebf
000003a0: 5374 743e 3a0a 063f bb53 8abf 8cc9 e23f
000003b0: 675b 303f 5359 0abe f4e2 82be e84c 7abd

pos_encoder.pe f4 [1, 5000, 16]
0.0 1.0 0.0 1.0 0.0 1.0 0.0 1.0
0.0 1.0 0.0 1.0 0.0 1.0 0.0 1.0
0.84147096 0.54030234 0.3109836 0.9504153 0.099833414 0.9950042 0.031617504 0.99950004
0.009999833 0.99995 0.0031622713 0.999995 0.0009999998 0.9999995 0.0003162278 0.99999994
0.9092974 -0.41614684 0.5911271 0.8065784 0.19866931 0.9800666 0.063203394 0.9980007
0.019998666 0.9998 0.006324511 0.99998003 0.0019999985 0.99999803 0.0006324555 0.9999998
0.14112 -0.9899925 0.8126489 0.58275366 0.2955202 0.9553365 0.094726086 0.99550337
0.0299955 0.99955004 0.009486687 0.999955 0.0029999954 0.9999955 0.00094868324 0.9999996
-0.7568025 -0.6536436 0.95358074 0.30113748 0.38941833 0.921061 0.12615407 0.99201065
0.039989334 0.9992001 0.01264877 0.99992 0.003999989 0.999992 0.0012649108 0.9999992
-0.9589243 0.2836622 0.99994653 -0.010342338 0.47942552 0.87758255 0.15745588 0.987526
0.049979165 0.99875027 0.015810724 0.999875 0.004999979 0.99998754 0.0015811382 0.99999875
-0.2794155 0.96017027 0.9471482 -0.3207964 0.5646424 0.8253356 0.18860027 0.98205394
0.059964005 0.99820054 0.018972522 0.99982 0.0059999637 0.999982 0.0018973656 0.9999982
0.6569866 0.75390226 0.8004216 -0.5994375 0.6442176 0.7648422 0.2195561 0.9755999
0.06994285 0.997551 0.022134129 0.999755 0.006999942 0.9999755 0.0022135926 0.99999756
0.98935825 -0.14550003 0.5743178 -0.8186324 0.7173561 0.6967068 0.25029233 0.96817034
0.07991469 0.9968017 0.025295515 0.99968004 0.007999914 0.999968 0.0025298195 0.9999968
0.4121185 -0.91113025 0.29125923 -0.9566442 0.78332686 0.62161 0.28077832 0.95977265
0.089878544 0.9959527 0.028456647 0.99959505 0.008999879 0.9999595 0.0028460461 0.99999595
-0.5440211 -0.8390715 -0.02068357 -0.9997861 0.84147096 0.54030234 0.31098357 0.9504153
0.099833414 0.9950042 0.031617496 0.99950004 0.009999833 0.99995 0.0031622725 0.999995
-0.9999902 0.004425698 -0.33057496 -0.94377977 0.89120734 0.4535962 0.34087786 0.9401076
0.1097783 0.9939561 0.03477803 0.9993951 0.010999777 0.9999395 0.0034784987 0.999994
-0.53657293 0.84385395 -0.6076834 -0.7941793 0.9320391 0.36235783 0.3704313 0.9288599
0.119712204 0.99280864 0.03793821 0.9992801 0.011999711 0.999928 0.0037947244 0.9999928
0.42016703 0.9074468 -0.82452846 -0.5658205 0.9635582 0.26749888 0.3996143 0.9166834
0.12963414 0.9915619 0.041098017 0.9991551 0.012999633 0.9999155 0.0041109496 0.99999154
0.9906074 0.13673721 -0.9596054 -0.28134948 0.98544973 0.16996728 0.42839777 0.90359026
0.13954312 0.990216 0.044257414 0.99902016 0.013999541 0.999902 0.0044271746 0.9999902
0.65028787 -0.7596879 -0.9995187 0.031022351 0.997495 0.07073732 0.45675287 0.8895936
0.14943813 0.9887711 0.047416367 0.9988752 0.014999436 0.9998875 0.004743399 0.99998873
00000000: 0000 0000 0000 803f 0000 0000 0000 803f
00000010: 0000 0000 0000 803f 0000 0000 0000 803f
00000020: 0000 0000 0000 803f 0000 0000 0000 803f
00000030: 0000 0000 0000 803f 0000 0000 0000 803f
00000040: a46a 573f 4151 0a3f 3e39 9f3e 6b4e 733f
00000050: 7675 cc3d 98b8 7e3f 5b81 013d 3cdf 7f3f
00000060: 57d6 233c b9fc 7f3f 1c3e 4f3b acff 7f3f
00000070: 6d12 833a f8ff 7f3f 60cb a539 ffff 7f3f
00000080: b7c7 683f 3311 d5be 1b54 173f ec7b 4e3f
00000090: f86f 4b3e a5e5 7a3f c870 813d f97c 7f3f
000000a0: 3ed4 a33c e5f2 7f3f d83d cf3b b1fe 7f3f
000000b0: 6812 033b dfff 7f3f 5fcb 253a fdff 7f3f
000000c0: c381 103e 2670 7dbf c209 503f 582f 153f
000000d0: 6c4e 973e ef90 743f c0ff c13d 4fd9 7e3f
000000e0: 1fb9 f53c 83e2 7f3f 0d6e 1b3c 0dfd 7f3f
000000f0: 929b 443b b5ff 7f3f 0eb1 783a f9ff 7f3f
00000100: cfbd 41bf 3055 27bf de1d 743f b12e 9a3e
00000110: d761 c73e a7ca 6b3f 882e 013e 69f4 7d3f
00000120: dbcb 233d 94cb 7f3f c93c 4f3c c2fa 7f3f
00000130: 5712 833b 7aff 7f3f 5dcb a53a f3ff 7f3f
00000140: 107c 75bf 2c3c 913e 7ffc 7f3f e972 29bc
00000150: 4377 f53e 40a9 603f 1d3c 213e 81ce 7c3f
00000160: f4b6 4c3d 19ae 7f3f 7e85 813c cff7 7f3f
00000170: ddd6 a33b 2fff 7f3f 323e cf3a ebff 7f3f
00000180: 8c0f 8fbe b8cd 753f 4e78 723f 6d3f a4be
00000190: 688c 103f 3249 533f 6e20 413e e367 7b3f
000001a0: d19c 753d 128a 7f3f 436c 9b3c 34f4 7f3f
000001b0: 589b c43b d2fe 7f3f 06b1 f83a e2ff 7f3f
000001c0: 4630 283f bdff 403f 6ee8 4c3f bc74 19bf
000001d0: 72eb 243f b3cc 433f 50d3 603e eac0 793f
000001e0: 323e 8f3d 815f 7f3f a252 b53c f2ef 7f3f
000001f0: c55f e53b 65fe 7f3f ec11 113b d7ff 7f3f
00000200: 9546 7d3f f6fd 14be 7e06 133f e591 51bf
00000210: a6a4 373f 605b 323f 5126 803e 03da 773f
00000220: 50aa a33d 652e 7f3f 8a38 cf3c 08eb 7f3f
00000230: 1212 033c e7fd 7f3f 54cb 253b caff 7f3f
00000240: 3201 d33e d53f 69bf ee1f 953e a2e6 74bf
00000250: 1c88 483f d521 1f3f 2dc2 8f3e a9b3 753f
00000260: 3e12 b83d c2f6 7e3f ea1d e93c 76e5 7f3f
00000270: 3a74 133c 59fd 7f3f bb84 3a3b bcff 7f3f
00000280: f844 0bbf 64cd 56bf 9770 a9bc fbf1 7fbf
00000290: a46a 573f 4151 0a3f 3d39 9f3e 6b4e 733f
000002a0: 7675 cc3d 98b8 7e3f 5981 013d 3cdf 7f3f
000002b0: 57d6 233c b9fc 7f3f 213e 4f3b acff 7f3f
000002c0: 5cff 7fbf 7205 913b 1f41 a9be 8d9b 71bf
000002d0: 2a26 643f c33d e83e 8b87 ae3e e4aa 703f
000002e0: 72d3 e03d e873 7e3f 6873 0e3d 5bd8 7f3f
000002f0: 6938 343c 09fc 7f3f 86f7 633b 9bff 7f3f
00000300: d85c 09bf d006 583f 2491 1bbf 564f 4bbf
00000310: 1d9a 6e3f f786 b93e 2ca9 bd3e c3c9 6d3f
00000320: ac2b f53d b528 7e3f 1965 1b3d d2d0 7f3f
00000330: 709a 443c 48fb 7f3f e9b0 783b 87ff 7f3f
00000340: 2220 d73e 6f4e 683f 4c14 53bf 9dd9 10bf
00000350: c0ab 763f 9df5 883e 3f9a cc3e c3ab 6a3f
00000360: d0be 043e 00d7 7d3f 6556 283d a1c8 7f3f
00000370: 6afc 543c 76fa 7f3f 25b5 863b 72ff 7f3f
00000380: 7298 7d3f d704 0c3e b3a8 75bf 0a0d 90be
00000390: 6f46 7c3f e70b 2e3e f456 db3e b151 673f
000003a0: 64e4 0e3e cc7e 7d3f 4347 353d c9bf 7f3f
000003b0: 555e 653c 94f9 7f3f d511 913b 5cff 7f3f
000003c0: 4479 263f e87a 42bf 75e0 7fbf 9622 fe3c
000003d0: d55b 7f3f bade 903d 83db e93e 68bc 633f
000003e0: 4f06 193e 1a20 7d3f aa37 423d 49b6 7f3f
000003f0: 32c0 753c a1f8 7f3f 846e 9b3b 43ff 7f3f

pos_decoder.pe f4 [1, 5000, 16]
0.0 1.0 0.0 1.0 0.0 1.0 0.0 1.0
0.0 1.0 0.0 1.0 0.0 1.0 0.0 1.0
0.84147096 0.54030234 0.3109836 0.9504153 0.099833414 0.9950042 0.031617504 0.99950004
0.009999833 0.99995 0.0031622713 0.999995 0.0009999998 0.9999995 0.0003162278 0.99999994
0.9092974 -0.41614684 0.5911271 0.8065784 0.19866931 0.9800666 0.063203394 0.9980007
0.019998666 0.9998 0.006324511 0.99998003 0.0019999985 0.99999803 0.0006324555 0.9999998
0.14112 -0.9899925 0.8126489 0.58275366 0.2955202 0.9553365 0.094726086 0.99550337
0.0299955 0.99955004 0.009486687 0.999955 0.0029999954 0.9999955 0.00094868324 0.9999996
-0.7568025 -0.6536436 0.95358074 0.30113748 0.38941833 0.921061 0.12615407 0.99201065
0.039989334 0.9992001 0.01264877 0.99992 0.003999989 0.999992 0.0012649108 0.9999992
-0.9589243 0.2836622 0.99994653 -0.010342338 0.47942552 0.87758255 0.15745588 0.987526
0.049979165 0.99875027 0.015810724 0.999875 0.004999979 0.99998754 0.0015811382 0.99999875
-0.2794155 0.96017027 0.9471482 -0.3207964 0.5646424 0.8253356 0.18860027 0.98205394
0.059964005 0.99820054 0.018972522 0.99982 0.0059999637 0.999982 0.0018973656 0.9999982
0.6569866 0.75390226 0.8004216 -0.5994375 0.6442176 0.7648422 0.2195561 0.9755999
0.06994285 0.997551 0.022134129 0.999755 0.006999942 0.9999755 0.0022135926 0.99999756
0.98935825 -0.14550003 0.5743178 -0.8186324 0.7173561 0.6967068 0.25029233 0.96817034
0.07991469 0.9968017 0.025295515 0.99968004 0.007999914 0.999968 0.0025298195 0.9999968
0.4121185 -0.91113025 0.29125923 -0.9566442 0.78332686 0.62161 0.28077832 0.95977265
0.089878544 0.9959527 0.028456647 0.99959505 0.008999879 0.9999595 0.0028460461 0.99999595
-0.5440211 -0.8390715 -0.02068357 -0.9997861 0.84147096 0.54030234 0.31098357 0.9504153
0.099833414 0.9950042 0.031617496 0.99950004 0.009999833 0.99995 0.0031622725 0.999995
-0.9999902 0.004425698 -0.33057496 -0.94377977 0.89120734 0.4535962 0.34087786 0.9401076
0.1097783 0.9939561 0.03477803 0.9993951 0.010999777 0.9999395 0.0034784987 0.999994
-0.53657293 0.84385395 -0.6076834 -0.7941793 0.9320391 0.36235783 0.3704313 0.9288599
0.119712204 0.99280864 0.03793821 0.9992801 0.011999711 0.999928 0.0037947244 0.9999928
0.42016703 0.9074468 -0.82452846 -0.5658205 0.9635582 0.26749888 0.3996143 0.9166834
0.12963414 0.9915619 0.041098017 0.9991551 0.012999633 0.9999155 0.0041109496 0.99999154
0.9906074 0.13673721 -0.9596054 -0.28134948 0.98544973 0.16996728 0.42839777 0.90359026
0.13954312 0.990216 0.044257414 0.99902016 0.013999541 0.999902 0.0044271746 0.9999902
0.65028787 -0.7596879 -0.9995187 0.031022351 0.997495 0.07073732 0.45675287 0.8895936
0.14943813 0.9887711 0.047416367 0.9988752 0.014999436 0.9998875 0.004743399 0.99998873
00000000: 0000 0000 0000 803f 0000 0000 0000 803f
00000010: 0000 0000 0000 803f 0000 0000 0000 803f
00000020: 0000 0000 0000 803f 0000 0000 0000 803f
00000030: 0000 0000 0000 803f 0000 0000 0000 803f
00000040: a46a 573f 4151 0a3f 3e39 9f3e 6b4e 733f
00000050: 7675 cc3d 98b8 7e3f 5b81 013d 3cdf 7f3f
00000060: 57d6 233c b9fc 7f3f 1c3e 4f3b acff 7f3f
00000070: 6d12 833a f8ff 7f3f 60cb a539 ffff 7f3f
00000080: b7c7 683f 3311 d5be 1b54 173f ec7b 4e3f
00000090: f86f 4b3e a5e5 7a3f c870 813d f97c 7f3f
000000a0: 3ed4 a33c e5f2 7f3f d83d cf3b b1fe 7f3f
000000b0: 6812 033b dfff 7f3f 5fcb 253a fdff 7f3f
000000c0: c381 103e 2670 7dbf c209 503f 582f 153f
000000d0: 6c4e 973e ef90 743f c0ff c13d 4fd9 7e3f
000000e0: 1fb9 f53c 83e2 7f3f 0d6e 1b3c 0dfd 7f3f
000000f0: 929b 443b b5ff 7f3f 0eb1 783a f9ff 7f3f
00000100: cfbd 41bf 3055 27bf de1d 743f b12e 9a3e
00000110: d761 c73e a7ca 6b3f 882e 013e 69f4 7d3f
00000120: dbcb 233d 94cb 7f3f c93c 4f3c c2fa 7f3f
00000130: 5712 833b 7aff 7f3f 5dcb a53a f3ff 7f3f
00000140: 107c 75bf 2c3c 913e 7ffc 7f3f e972 29bc
00000150: 4377 f53e 40a9 603f 1d3c 213e 81ce 7c3f
00000160: f4b6 4c3d 19ae 7f3f 7e85 813c cff7 7f3f
00000170: ddd6 a33b 2fff 7f3f 323e cf3a ebff 7f3f
00000180: 8c0f 8fbe b8cd 753f 4e78 723f 6d3f a4be
00000190: 688c 103f 3249 533f 6e20 413e e367 7b3f
000001a0: d19c 753d 128a 7f3f 436c 9b3c 34f4 7f3f
000001b0: 589b c43b d2fe 7f3f 06b1 f83a e2ff 7f3f
000001c0: 4630 283f bdff 403f 6ee8 4c3f bc74 19bf
000001d0: 72eb 243f b3cc 433f 50d3 603e eac0 793f
000001e0: 323e 8f3d 815f 7f3f a252 b53c f2ef 7f3f
000001f0: c55f e53b 65fe 7f3f ec11 113b d7ff 7f3f
00000200: 9546 7d3f f6fd 14be 7e06 133f e591 51bf
00000210: a6a4 373f 605b 323f 5126 803e 03da 773f
00000220: 50aa a33d 652e 7f3f 8a38 cf3c 08eb 7f3f
00000230: 1212 033c e7fd 7f3f 54cb 253b caff 7f3f
00000240: 3201 d33e d53f 69bf ee1f 953e a2e6 74bf
00000250: 1c88 483f d521 1f3f 2dc2 8f3e a9b3 753f
00000260: 3e12 b83d c2f6 7e3f ea1d e93c 76e5 7f3f
00000270: 3a74 133c 59fd 7f3f bb84 3a3b bcff 7f3f
00000280: f844 0bbf 64cd 56bf 9770 a9bc fbf1 7fbf
00000290: a46a 573f 4151 0a3f 3d39 9f3e 6b4e 733f
000002a0: 7675 cc3d 98b8 7e3f 5981 013d 3cdf 7f3f
000002b0: 57d6 233c b9fc 7f3f 213e 4f3b acff 7f3f
000002c0: 5cff 7fbf 7205 913b 1f41 a9be 8d9b 71bf
000002d0: 2a26 643f c33d e83e 8b87 ae3e e4aa 703f
000002e0: 72d3 e03d e873 7e3f 6873 0e3d 5bd8 7f3f
000002f0: 6938 343c 09fc 7f3f 86f7 633b 9bff 7f3f
00000300: d85c 09bf d006 583f 2491 1bbf 564f 4bbf
00000310: 1d9a 6e3f f786 b93e 2ca9 bd3e c3c9 6d3f
00000320: ac2b f53d b528 7e3f 1965 1b3d d2d0 7f3f
00000330: 709a 443c 48fb 7f3f e9b0 783b 87ff 7f3f
00000340: 2220 d73e 6f4e 683f 4c14 53bf 9dd9 10bf
00000350: c0ab 763f 9df5 883e 3f9a cc3e c3ab 6a3f
00000360: d0be 043e 00d7 7d3f 6556 283d a1c8 7f3f
00000370: 6afc 543c 76fa 7f3f 25b5 863b 72ff 7f3f
00000380: 7298 7d3f d704 0c3e b3a8 75bf 0a0d 90be
00000390: 6f46 7c3f e70b 2e3e f456 db3e b151 673f
000003a0: 64e4 0e3e cc7e 7d3f 4347 353d c9bf 7f3f
000003b0: 555e 653c 94f9 7f3f d511 913b 5cff 7f3f
000003c0: 4479 263f e87a 42bf 75e0 7fbf 9622 fe3c
000003d0: d55b 7f3f bade 903d 83db e93e 68bc 633f
000003e0: 4f06 193e 1a20 7d3f aa37 423d 49b6 7f3f
000003f0: 32c0 753c a1f8 7f3f 846e 9b3b 43ff 7f3f

encoder.encoder_layer.self_attn.in_proj_weight f4 [48, 16]
-0.20692006 0.24558517 0.1806354 -0.16061716 0.038563564 -0.15721154 -0.067226365 0.057008743
-0.24522626 -0.10466083 -0.23402408 0.11702376 0.077802934 -0.047991432 -0.282679 -0.05622045
0.23096478 0.16139728 0.019379001 0.23185273 -0.07327282 -0.25887367 0.29267326 0.13266791
0.2758626 0.20101896 0.07169155 0.3007667 -0.30592263 -0.043779194 -0.10284933 0.035182547
0.2837786 -0.24278593 0.037026286 0.11668226 0.1791163 -0.3017812 -0.12150573 0.00466349
0.11447571 -0.2000805 -0.14132069 0.052388653 0.2529335 0.11484681 0.13874526 -0.19479497
0.21626522 0.09106252 0.11805945 0.084557556 0.15027913 0.24785304 0.18874827 -0.052144356
0.029572751 -0.12899934 0.01930724 -0.1142324 -0.04721573 -0.2938448 0.060809076 -0.22436185
-0.116629735 0.012314342 0.21253693 -0.29617783 -0.111596644 0.16716272 0.19195898 -0.0767
0.095803685 -0.29817796 0.07164505 0.171671 -0.12737118 -0.12389974 -0.25469255 -0.13578863
0.12595712 0.21864186 -0.2203355 -0.2885735 -0.010441625 0.16694759 0.29775274 0.30462286
0.30480164 0.16999513 0.05135836 0.16345228 0.26338652 0.02620086 0.11682308 -0.18378529
-0.25507694 -0.07248382 -0.012218201 -0.1683458 0.10134712 -0.30367798 -0.07644501 0.008704432
-0.21721868 0.07178681 -0.1950461 0.29415283 -0.030481061 0.065554 0.24912599 -0.04274748
0.23390509 -0.07389529 -0.15388225 0.03280273 -0.06887516 0.18950546 -0.007763273 0.07923528
-0.16599146 -0.11004907 0.094438866 0.1518285 0.19044122 0.20162052 0.18744053 0.123371914
0.06051587 0.06427427 0.1261763 -0.21260884 -0.010235653 0.2766864 0.27822888 0.24307103
0.28898722 -0.1519873 0.10315746 0.054437045 -0.16666307 0.15561481 0.22507593 0.26271442
0.15853654 -0.09018334 0.15636711 -0.24073943 -0.18936439 -0.018626658 -0.14955948 -0.11212805
0.30026066 -0.25977775 0.033584166 0.2410387 0.28369793 -0.25341603 0.121923804 0.008227301
0.19842102 -0.303538 -0.28424186 -0.2660084 -0.24433635 -0.045376845 0.2146426 -0.19328736
0.16487375 -0.00609346 0.16437533 -0.023581639 0.29473615 0.22937855 -0.11515987 -0.21167049
0.07625397 0.1253475 -0.119785696 -0.14942116 0.29010105 0.27467093 0.14614014 -0.08104657
0.06330449 -0.23589838 -0.06290164 -0.2255177 0.19476135 0.23344377 0.27017418 0.24101764
-0.023358185 0.08914045 -0.036618903 0.047227666 0.17608276 0.050550755 0.11759137 -0.16647144
-0.19785942 -0.03162009 -0.25865832 -0.22690931 0.1428587 -0.25579694 -0.04055356 0.1942612
-0.08816462 -0.09113136 0.12021504 -0.25887203 0.12859915 0.27613226 -0.12157333 -0.046748817
0.24019504 -0.04429673 0.16728953 -0.13767137 0.17818816 -0.18958876 0.08102889 -0.011156044
-0.30205512 -0.015040728 -0.047234636 0.28538692 0.17369615 0.29457346 0.12696584 -0.0072496417
-0.055824347 0.019170621 0.039067633 -0.049249995 0.25386018 0.20718922 0.069898844 0.08905924
-0.21383916 0.0429994 0.000109208726 0.102019966 0.0045190584 -0.037669636 -0.12358004 -0.11653582
-0.023660406 -0.28486478 0.29006162 -0.12380043 -0.074109875 0.19935273 0.24141228 0.20806065
00000000: dae2 53be ae7a 7b3e 7cf8 383e d378 24be
00000010: d4f4 1d3d 10fc 20be faad 89bd 0082 693d
00000020: 981c 7bbe 6b58 d6bd 02a4 6fbe 27aa ef3d
00000030: 2557 9f3d aa92 44bd 4dbb 90be 6a47 66bd
00000040: 0882 6c3e 5445 253e b6c0 9e3c cd6a 6d3e
00000050: 0f10 96bd 178b 84be 45d9 953e 19da 073e
00000060: dd3d 8d3e ead7 4d3e 05d3 923d 18fe 993e
00000070: e4a1 9cbe d051 33bd aba2 d2bd 931b 103d
00000080: 6e4b 913e e09c 78be e0a8 173d 1cf7 ee3d
00000090: 436a 373e 1183 9abe ffd7 f8bd 31d0 983b
000000a0: 3e72 ea3d e7e1 4cbe 5fb6 10be 7c95 563d
000000b0: 8080 813e ce34 eb3d 3d13 0e3e 5578 47be
000000c0: a174 5d3e fd7e ba3d 27c9 f13d 832c ad3d
000000d0: c6e2 193e 30cd 7d3e 3a47 413e 5295 55bd
000000e0: 8e42 f23c 6718 04be 382a 9e3c adf2 e9bd
000000f0: 4865 41bd d372 96be f012 793d 1dbf 65be
00000100: 92db eebd 18c2 493c 48a3 593e 9fa4 97be
00000110: c88c e4bd b42c 2b3e e590 443e e414 9dbd
00000120: b934 c43d c8aa 98be a4ba 923d 86ca 2f3e
00000130: 976d 02be 26bf fdbd 1067 82be 2d0c 0bbe
00000140: e7fa 003e a7e3 5f3e a19f 61be e8bf 93be
00000150: 5913 2bbc 4ff4 2a3e 0c73 983e 87f7 9b3e
00000160: f60e 9c3e 3413 2e3e 255d 523d 0960 273e
00000170: 99da 863e 30a3 d63c f040 ef3d 3632 3cbe
00000180: 7299 82be 6672 94bd d92e 48bc d762 2cbe
00000190: 148f cf3d ae7b 9bbe 348f 9cbd 099d 0e3c
000001a0: 936e 5ebe f704 933d 2aba 47be 339b 963e
000001b0: 6bb3 f9bc 2d41 863d e21a 7f3e fb17 2fbd
000001c0: d184 6f3e 6a56 97bd 4f93 1dbe 285c 063d
000001d0: 6b0e 8dbd b80d 423e 0e63 febb 1b46 a23d
000001e0: aaf9 29be 6861 e1bd 2a69 c13d ee78 1b3e
000001f0: 0603 433e 9c75 4e3e 69f0 3f3e 6aaa fc3d
00000200: 7ddf 773d 3aa2 833d 5c34 013e 22b6 59be
00000210: 71b3 27bc d7a9 8d3e 0474 8e3e 9de7 783e
00000220: 22f6 933e 8fa2 1bbe 3844 d33d 61f9 5e3d
00000230: b9a9 2abe 7d59 1f3e 4e7a 663e 8182 863e
00000240: 6757 223e 0bb2 b8bd b31e 203e 6684 76be
00000250: bde8 41be ef96 98bc 1f26 19be 64a3 e5bd
00000260: c4bb 993e 9701 85be 8d8f 093d d9d2 763e
00000270: db40 913e bfbf 81be 30b3 f93d cdcb 063c
00000280: e12e 4b3e 5569 9bbe 2688 91be 4132 88be
00000290: 4f33 7abe 12dd 39bd 45cb 5b3e 1fed 45be
000002a0: aad4 283e a6ab c7bb 0252 283e 482e c1bc
000002b0: a8e7 963e 36e2 6a3e f0d8 ebbd 26c0 58be
000002c0: 0b2b 9c3d 185b 003e 3452 f5bd dc01 19be
000002d0: 2088 943e aba1 8c3e c3a5 153e befb a5bd
000002e0: c9a5 813d 588f 71be 93d2 80bd 1dee 66be
000002f0: 856f 473e e20b 6f3e 4554 8a3e 54cd 763e
00000300: aa59 bfbc 458f b63d b4fd 15bd cc71 413d
00000310: 0a4f 343e 4f0e 4f3d bfd3 f03d 7d77 2abe
00000320: a99b 4abe 1184 01bd dd6e 84be ea5a 68be
00000330: 8d49 123e d1f7 82be 7d1b 26bd 68ec 463e
00000340: a78f b4bd 14a3 babd 4e33 f63d e08a 84be
00000350: 7faf 033e 3561 8d3e 70fb f8bd b07b 3fbd
00000360: b0f5 753e 7d70 35bd f24d 2b3e b9f9 0cbe
00000370: f576 363e 8e23 42be 7af2 a53d d7c7 36bc
00000380: f8a6 9abe 636d 76bc 1b79 41bd 3c1e 923e
00000390: 67dd 313e 55d2 963e 5503 023e 678e edbb
000003a0: 12a8 64bd b50b 9d3c 6205 203d 5dba 49bd
000003b0: f6f9 813e 6929 543e 2027 8f3d b164 b63d
000003c0: a7f8 5abe 2420 303d fd06 e538 d8ef d03d
000003d0: 9c14 943b 7a4b 1abd 8817 fdbd 55aa eebd
000003e0: 78d3 c1bc ccd9 91be f582 943e 148b fdbd
000003f0: ebc6 97bd 1f23 4c3e c834 773e da0d 553e

encoder.encoder_layer.self_attn.in_proj_bias f4 [48]
0.0 0.0 0.0 0.0 0.0 0.0 0.0 0.0
0.0 0.0 0.0 0.0 0.0 0.0 0.0 0.0
0.0 0.0 0.0 0.0 0.0 0.0 0.0 0.0
0.0 0.0 0.0 0.0 0.0 0.0 0.0 0.0
0.0 0.0 0.0 0.0 0.0 0.0 0.0 0.0
0.0 0.0 0.0 0.0 0.0 0.0 0.0 0.0
00000000: 0000 0000 0000 0000 0000 0000 0000 0000
00000010: 0000 0000 0000 0000 0000 0000 0000 0000
00000020: 0000 0000 0000 0000 0000 0000 0000 0000
00000030: 0000 0000 0000 0000 0000 0000 0000 0000
00000040: 0000 0000 0000 0000 0000 0000 0000 0000
00000050: 0000 0000 0000 0000 0000 0000 0000 0000
00000060: 0000 0000 0000 0000 0000 0000 0000 0000
00000070: 0000 0000 0000 0000 0000 0000 0000 0000
00000080: 0000 0000 0000 0000 0000 0000 0000 0000
00000090: 0000 0000 0000 0000 0000 0000 0000 0000
000000a0: 0000 0000 0000 0000 0000 0000 0000 0000
000000b0: 0000 0000 0000 0000 0000 0000 0000 0000

encoder.encoder_layer.self_attn.out_proj.weight f4 [16, 16]
0.009900212 -0.19177818 0.014480174 -0.14939836 0.15186259 -0.1448026 0.22499704 -0.19051847
0.18917039 0.061434507 0.11055213 -0.23805937 0.021499872 0.014935851 0.09435049 0.034537405
0.14363396 -0.22386208 0.001719147 0.110173166 -0.09505674 -0.14721596 0.10323849 0.14996573
0.08791235 -0.1319319 -0.052525014 -0.1878053 0.1332305 -0.24498203 -0.0002964735 0.21700323
0.14033675 0.1964379 0.110542536 0.19290477 0.12313625 0.20790648 0.001606375 -0.0017058849
0.2152634 -0.032446355 0.240486 0.1372911 0.16786516 -0.20198274 -0.1351507 0.0630773
0.20739466 0.12754232 0.211707 -0.015480667 0.185556 -0.06084448 0.078798026 0.16349784
-0.20301586 0.036199152 0.12773356 -0.03173068 -0.1643286 -0.0031703115 -0.10590461 -0.19075772
-0.07846737 -0.0026721954 0.18115619 -0.07555637 -0.18046606 -0.070819795 -0.041779637 0.22480002
0.23067468 -0.21415234 -0.06347692 -0.2454308 -0.04167658 0.042916417 -0.23581573 -0.074288756
-0.06652269 0.12900469 0.06709114 -0.1738632 0.08804488 -0.21910468 -0.102232486 -0.07414952
0.07581058 0.10000014 0.2268545 -0.18807721 -0.23646569 -0.059894294 0.179654 -0.2174707
0.15520316 0.13233173 -0.2370036 0.14333412 0.23423123 0.16203079 -0.2205278 0.09107518
0.074994326 -0.038376957 0.036263347 0.1632976 -0.1397469 0.076966465 0.21051314 0.13577572
0.13551015 -0.05089718 0.09550899 0.17233089 0.040329605 0.010366857 0.2421923 0.19988301
-0.044397682 0.08045557 0.16076872 0.23291922 0.01753068 -0.15816376 0.19108242 0.09330401
-0.1451369 -0.09369567 -0.13338721 0.1275653 -0.18240291 -0.23688224 0.2002981 0.24415642
0.1759749 0.22247726 0.090204924 0.11929107 0.24001735 0.10845846 -0.18565872 0.082176805
-0.076067 -0.10174468 0.06957355 0.042144567 -0.20329034 0.20329845 0.021843135 0.061861843
0.21768904 0.093298554 -0.1291449 0.10275546 0.16820931 0.1751922 -0.21848097 -0.19131082
0.02067858 0.21053329 0.06070894 -0.19045252 -0.00782451 0.058228105 0.070186466 0.20641309
0.103634864 -0.010768682 -0.22661874 -0.22858337 -0.14552358 0.14013505 -0.08936313 0.117536455
0.012058437 0.093916655 0.21332097 0.22946858 0.06432599 -0.050244838 0.032346427 -0.145345
-0.16475406 0.23997465 0.16002378 -0.020646453 0.14801782 -0.05376327 0.13393956 0.020448029
-0.028727323 0.11628109 -0.0561592 0.11415741 -0.22856542 0.0777674 0.16160884 0.08101398
0.002614975 0.016651839 -0.096470565 0.19010219 0.11726722 0.19841143 0.11229086 0.11178732
-0.24922943 0.01988706 0.2331104 0.07258618 0.16611487 0.24139747 0.02006945 -0.20937747
0.21229652 0.21071514 -0.09358674 -0.19028094 -0.23216614 0.061031163 0.2352306 -0.12255275
0.12630653 -0.078270316 -0.16496065 0.051855594 0.055816263 -0.08482778 -0.18898025 -0.06630486
0.17468044 -0.076839626 0.2399914 -0.0057597756 0.16818237 0.0044475496 -0.16754225 -0.23956028
-0.07717273 0.025917798 0.03028068 -0.013866305 0.06272879 0.1733712 -0.07771692 -0.1379056
-0.14413404 0.234283 -0.19688296 0.057714432 -0.19063511 -0.09862262 -0.00462386 -0.19056022
00000000: 8034 223c 8061 44be 403e 6d3c e2fb 18be
00000010: de81 1b3e 2247 14be a065 663e 4617 43be
00000020: e2b5 413e c0a2 7b3d 2869 e23d d6c5 73be
00000030: 8020 b03c 80b5 743c d43a c13d 1877 0d3d
00000040: c814 133e 1a3c 65be 0055 e13a 78a2 e13d
00000050: 1cad c2bd c8bf 16be b46e d33d 9e90 193e
00000060: 640b b43d 2819 07be 7824 57bd 0850 40be
00000070: 946d 083e 92dc 7abe 0070 9bb9 1836 5e3e
00000080: 70b4 0f3e 0427 493e 2064 e23d d488 453e
00000090: dc2e fc3d 70e5 543e 008d d23a 0098 dfba
000000a0: 026e 5c3e 78e6 04bd f641 763e 0a96 0c3e
000000b0: d8e4 2b3e 90d4 4ebe f264 0abe ac2e 813d
000000c0: 445f 543e 749a 023e b8c9 583e a0a2 7dbc
000000d0: 6402 3e3e 1038 79bd dc60 a13d fa6b 273e
000000e0: 64e3 4fbe 9045 143d 96cc 023e 08f8 01bd
000000f0: c245 28be 00c5 4fbb 84e4 d8bd fe55 43be
00000100: 80b3 a0bd 0020 2fbb 0281 393e 4cbd 9abd
00000110: 18cc 38be f809 91bd 2021 2bbd fa31 663e
00000120: fc35 6c3e c04a 5bbe 3000 82bd 3652 7bbe
00000130: 10b5 2abd 20c9 2f3d ae79 71be b424 98bd
00000140: 0c3d 88bd ce19 043e 1467 893d 3209 32be
00000150: e050 b43d fa5c 60be 445f d1bd b4db 97bd
00000160: 9442 9b3d e0cc cc3d 8c4c 683e 5097 40be
00000170: 1024 72be b853 75bd 38f7 373e a4b0 5ebe
00000180: 94ed 1e3e f881 073e 12b1 72be 2ec6 123e
00000190: 50da 6f3e 66eb 253e 0ad2 61be a085 ba3d
000001a0: a096 993d 2831 1dbd e088 143d 7c37 273e
000001b0: d019 0fbe 98a0 9d3d c290 573e ca08 0b3e
000001c0: 2cc3 0a3e 9079 50bd 389a c33d 8277 303e
000001d0: a830 253d c0d9 293c 4201 783e 22ae 4c3e
000001e0: 58da 35bd e4c5 a43d 8ea0 243e 6082 6e3e
000001f0: 809c 8f3c aef5 21be 1cab 433e 2c16 bf3d
00000200: c49e 14be 84e3 bfbd a896 08be 7aa0 023e
00000210: d4c7 3abe 4291 72be f21a 4d3e 2404 7a3e
00000220: c432 343e 14d1 633e 5cbd b83d e04e f43d
00000230: 1cc7 753e 781f de3d 521d 3ebe 504c a83d
00000240: 04c9 9bbd 845f d0bd 947c 8e3d c89f 2c3d
00000250: 582b 50be 782d 503e 60f0 b23c d862 7d3d
00000260: e0e9 5e3e 5013 bf3d 903e 04be 7471 d23d
00000270: 103f 2c3e 9665 333e 7ab9 5fbe fce6 43be
00000280: 2066 a93c 0a96 573e f0a9 783d fc05 43be
00000290: 6032 00bc 9880 6e3d ecbd 8f3d f45d 533e
000002a0: 843e d43d 206f 30bc be0e 68be c211 6abe
000002b0: 2204 15be 907f 0f3e 0404 b7bd f4b6 f03d
000002c0: c090 453c 6057 c03d d070 5a3e d0f9 6a3e
000002d0: 58bd 833d 88cd 4dbd b07d 043d 52d5 14be
000002e0: 4ab5 28be eabb 753e 46dd 233e c022 a9bc
000002f0: fc91 173e e036 5cbd 7427 093e a082 a73c
00000300: 9055 ebbc c824 ee3d 3007 66bd 5ccb e93d
00000310: 0e0d 6abe 8444 9f3d ca7c 253e a8ea a53d
00000320: 0060 2b3b 7069 883c 5c92 c5bd 26aa 423e
00000330: cc29 f03d 5e2c 4b3e c0f8 e53d c0f0 e43d
00000340: 0036 7fbe 30ea a23c 7eb4 6e3e 10a8 943d
00000350: 041a 2a3e e630 773e b068 a43c 0c67 56be
00000360: 4264 593e b6c5 573e 68aa bfbd 02d9 42be
00000370: f6bc 6dbe d0fb 793d 4ae0 703e f0fc fabd
00000380: 8056 013e 304c a0bd 72eb 28be 8866 543d
00000390: 989f 643d 30ba adbd 0a84 41be d8ca 87bd
000003a0: 6edf 323e 185e 9dbd 4ec0 753e 80bc bcbb
000003b0: 0038 2c3e c0bc 913b 3290 2bbe 4a4f 75be
000003c0: bc0c 9ebd 9051 d43c 300f f83c 802f 63bc
000003d0: f477 803d 3888 313e 0c2a 9fbd 2037 0dbe
000003e0: e097 13be e2e7 6f3e b09b 49be f865 6c3d
000003f0: da35 43be a8fa c9bd c083 97bb 3822 43be

encoder.encoder_layer.self_attn.out_proj.bias f4 [16]
0.0 0.0 0.0 0.0 0.0 0.0 0.0 0.0
0.0 0.0 0.0 0.0 0.0 0.0 0.0 0.0
00000000: 0000 0000 0000 0000 0000 0000 0000 0000
00000010: 0000 0000 0000 0000 0000 0000 0000 0000
00000020: 0000 0000 0000 0000 0000 0000 0000 0000
00000030: 0000 0000 0000 0000 0000 0000 0000 0000

encoder.encoder_layer.linear1.weight f4 [16, 16]
-0.09505898 0.24890983 -0.011128873 -0.08600727 -0.24120858 -0.19831255 -0.035019368 -0.081300646
-0.105737984 0.16428116 0.1804778 0.09974581 -0.10161367 0.12872067 0.08647615 -0.20911077
-0.020090729 0.21486256 -0.1837289 -0.18399188 0.1807037 -0.023373693 0.24435821 -0.19234285
0.1653341 -0.234362 0.18287474 0.23251909 -0.2017689 -0.022882462 -0.041932404 -0.041432977
-0.17069748 -0.1498341 -0.2061829 0.23069483 0.1189459 0.11472595 0.0017482638 0.114604205
-0.095743746 0.09952766 -0.028033972 -0.1491256 0.13153553 -0.24089485 -0.174202 0.23632163
0.08192134 -0.15643048 0.012287855 0.12773594 -0.07457793 0.09931117 -0.014442325 -0.12735051
0.09635237 0.03079611 -0.01165387 -0.15166414 0.24635202 0.15317908 0.19730464 0.1968655
0.21254098 -0.026982456 -0.24953336 -0.007650852 -0.07750413 0.18715239 0.14699346 -0.1310361
-0.06160626 0.19564492 -0.2226496 0.0014290512 0.112421274 0.015001863 -0.15279433 -0.24189562
0.11928806 0.118011355 -0.07110155 0.17680654 0.090097845 -0.10422227 0.23831001 -0.18832332
0.028993696 0.07560125 0.053124666 0.0386768 0.21000141 -0.17002672 -0.24816453 0.078953356
0.22858384 0.03052789 0.19737568 -0.18762049 0.0028575063 -0.19604695 0.12775677 -0.03208661
0.16770676 0.023326814 -0.09659043 0.07707536 -0.1264705 0.19473109 0.1698497 0.10905829
0.14546856 0.04044375 -0.17033094 -0.16643393 -0.12609401 0.07871169 0.057652235 0.0353992
0.1172584 0.23644054 0.19377327 -0.09717274 0.08506408 -0.19025919 0.06649831 -0.17794508
-0.08026096 -0.0532597 -0.15102604 -0.22366482 -0.21937767 0.24655241 -0.0335463 0.118917644
-0.24791458 -0.06655559 -0.17673579 -0.23656216 -0.20994687 0.23204121 0.03016138 0.1734991
0.14983067 0.23870826 0.24772495 -0.17823163 0.057406038 0.16757876 -0.10807899 0.06411958
0.23530585 -0.07556486 0.1578337 0.091324836 0.11547357 -0.16603717 0.004393369 0.1323536
-0.1343402 -0.2357342 -0.17517757 -0.08420864 0.11564082 0.24748373 0.13067687 0.123984754
0.018876553 0.0019152164 0.04855317 -0.041897207 -0.12681869 0.0008548498 0.020932555 0.2231549
-0.23572168 0.24008146 0.1728147 -0.110687524 -0.15015212 0.09329319 -0.06893119 -0.15064502
0.22851163 -0.20013326 -0.19550335 -0.23061794 0.09961492 0.22910407 -0.10008395 -0.12906352
-0.23916638 -0.13594338 0.2013976 0.008718908 0.14357308 0.24915794 0.04834774 -0.22638449
0.052580327 0.19869623 0.021692038 -0.10755351 -0.08525479 -0.11175868 -0.10723019 -0.108006895
0.23590928 0.005827576 -0.18184969 -0.08084041 0.13563907 0.18876061 0.10083768 -0.24336469
-0.09145719 -0.20536873 -0.117483556 0.18892628 -0.1736882 -0.17999226 0.10386646 -0.00758639
-0.00425303 0.0896751 -0.07341817 0.2311798 -0.14991 -0.18041605 0.03161493 0.13162205
0.13353452 -0.023982078 -0.03207025 0.11511853 0.11296004 0.20358503 -0.18664572 -0.2451388
0.01314044 0.24377957 0.051864445 0.022723705 -0.024047464 0.22539803 -0.042608768 0.017026037
-0.13117474 -0.12700734 -0.14751399 -0.12743121 0.051177263 -0.06362811 0.045239 -0.24419695
00000000: 48ae c2bd 38e2 7e3e e055 36bc 9424 b0bd
00000010: 62ff 76be 7212 4bbe 7870 0fbd f480 a6bd
00000020: 288d d8bd 5239 283e 2ccf 383e 8847 cc3d
00000030: d41a d0bd 5acf 033e 681a b13d 2221 56be
00000040: 5095 a4bc ee04 5c3e 6e23 3cbe 5e68 3cbe
00000050: 640a 393e 307a bfbc 0a39 7a3e 86f5 44be
00000060: 584d 293e 98fc 6fbe 8443 3b3e 7c19 6e3e
00000070: 829c 4ebe 0074 bbbc 50c1 2bbd a0b5 29bd
00000080: 52cb 2ebe 1c6e 19be 9c21 53be 443b 6c3e
00000090: e899 f33d 70f5 ea3d 0026 e53a 9cb5 ea3d
000000a0: 4c15 c4bd 28d5 cb3d 80a7 e5bc 62b4 18be
000000b0: 40b1 063e 24ad 76be 0262 32be 4cfe 713e
000000c0: 60c6 a73d 502f 20be 0053 493c 36cd 023e
000000d0: 50bc 98bd a863 cb3d 809f 6cbc 2c68 02be
000000e0: 6454 c53d 2048 fc3c e0ef 3ebc d84d 1bbe
000000f0: b443 7c3e fada 1c3e 3a0a 4a3e 1c97 493e
00000100: 58a4 593e 500a ddbc ac85 7fbe 00b4 fabb
00000110: 7cba 9ebd e0a4 3f3e 7485 163e 542e 06be
00000120: d856 7cbd 2457 483e 42fe 63be 004f bb3a
00000130: 203d e63d 60ca 753c 1e76 1cbe 7cb3 77be
00000140: 4c4d f43d f0af f13d b09d 91bd c60c 353e
00000150: 3885 b83d 7c72 d5bd 8a07 743e d4d7 40be
00000160: 3084 ed3c d4d4 9a3d 4099 593d 906b 1e3d
00000170: 9c0a 573e 7c1b 2ebe d81e 7ebe 4cb2 a13d
00000180: e211 6a3e a015 fa3c da1c 4a3e 961f 40be
00000190: 0045 3b3b 88c0 48be acd2 023e 406d 03bd
000001a0: 52bb 2b3e e017 bf3c 34d1 c5bd b0d9 9d3d
000001b0: 7c81 01be 9667 473e 14ed 2d3e f459 df3d
000001c0: b6f5 143e 58a8 253d 3c6b 2ebe a86d 2abe
000001d0: ca1e 01be 9833 a13d c024 6c3d c0fe 103d
000001e0: 2c25 f03d 781d 723e 806c 463e 8002 c7bd
000001f0: 1436 ae3d 4ed3 42be 4430 883d 3c37 36be
00000200: dc5f a4bd d826 5abd 92a6 1abe 6408 65be
00000210: 8aa4 60be 3c78 7c3e d867 09bd 188b f33d
00000220: 52dd 7dbe 4c4e 88bd 3afa 34be 5a3d 72be
00000230: 50fc 56be 369c 6d3e 0015 f73c c0a9 313e
00000240: 366d 193e f06f 743e 9cab 7d3e 5a82 36be
00000250: 9822 6b3d c499 2b3e 8458 ddbd 2051 833d
00000260: 04f4 703e c0c1 9abd 289f 213e 8408 bb3d
00000270: 687d ec3d a605 2abe 40f6 8f3b b487 073e
00000280: 7a90 09be 4e64 71be c061 33be 9475 acbd
00000290: 18d5 ec3d 606c 7d3e 28d0 053e b8eb fd3d
000002a0: 00a3 9a3c 0008 fb3a b0df 463d 689c 2bbd
000002b0: c2dc 01be 0018 603a c07a ab3c b882 643e
000002c0: 0661 71be ead7 753e 56f6 303e 24b0 e2bd
000002d0: 7ac1 19be 8010 bf3d cc2b 8dbd b042 1abe
000002e0: f4fe 693e bcef 4cbe 0832 48be 1c27 6cbe
000002f0: e802 cc3d 429a 6a3e d0f8 ccbd 3a29 04be
00000300: 08e8 74be be34 0bbe 2c3b 4e3e c0d9 0e3c
00000310: d204 133e 4223 7f3e 4808 463d 56d1 67be
00000320: 785e 573d 0677 4b3e 80b3 b13c 0445 dcbd
00000330: 109a aebd bce1 e4bd 809b dbbd b832 ddbd
00000340: 3492 713e 40f5 be3b ce36 3abe a88f a5bd
00000350: f8e4 0a3e 764a 413e fc83 ce3d 9834 79be
00000360: e84d bbbd 2e4c 52be 389b f0bd e475 413e
00000370: 52db 31be e44f 38be f0b7 d43d 4097 f8bb
00000380: 005d 8bbb 94a7 b73d 445c 96bd 66ba 6c3e
00000390: 0282 19be fcbe 38be a87e 013d eec7 063e
000003a0: 46bd 083e 1076 c4bc 185c 03bd 44c3 eb3d
000003b0: 9857 e73d 9878 503e 0e20 3fbe aa05 7bbe
000003c0: 004b 573c 5aa1 793e d06f 543d 1027 ba3c
000003d0: 30ff c4bc bece 663e 8886 2ebd 307a 8b3c
000003e0: ac52 06be 360e 02be e80d 17be 547d 02be
000003f0: 409f 513d 744f 82bd 884c 393d c40e 7abe

encoder.encoder_layer.linear1.bias f4 [16]
0.08717668 -0.13053915 0.08518845 -0.10221398 -0.18271583 0.14211875 0.09918612 0.038788915
0.10023227 0.03926471 0.17117694 -0.12461212 -0.22097099 0.034579664 0.021004438 0.046304137
00000000: b089 b23d 0eac 05be 4877 ae3d 9055 d1bd
00000010: dc19 3bbe 9487 113e 1822 cb3d 20e1 1e3d
00000020: 9446 cd3d 08d4 203d 0249 2f3e a434 ffbd
00000030: 3846 62be 68a3 0d3d 8011 ac3c 68a9 3d3d

encoder.encoder_layer.linear2.weight f4 [16, 16]
-0.11917037 -0.07447556 -0.021187127 0.067655206 0.19233927 -0.045606673 0.020521313 -0.055936247
0.07888046 0.14315364 -0.17481202 -0.24220178 -0.19279155 -0.14673206 -0.0029948652 0.09338352
-0.014653891 -0.12794614 -0.061157078 -0.09849396 -0.19442526 -0.18945524 -0.12989211 -0.2317273
-0.035920233 0.18650916 -0.050860196 0.0004988313 -0.070016235 0.13969949 -0.12785354 -0.20953071
-0.13947758 -0.1697984 0.2178449 0.22208315 -0.048499852 0.16342974 0.16794282 -0.060068578
-0.17918715 0.09000367 -0.08331701 0.010612339 0.02381584 0.11958629 0.029880196 -0.1698333
-0.22877559 0.1842657 0.08418828 -0.20733988 0.04261571 -0.08646408 0.058512628 -0.15997964
-0.23410946 -0.10521868 0.0596686 -0.23403782 0.062259346 -0.11377218 0.2415823 0.24040002
0.14712018 0.14415738 0.23007402 -0.075719684 -0.12225145 0.06667742 0.17696145 -0.08942211
-0.09153244 -0.029732525 0.10434905 0.050780416 0.10908499 -0.06480065 -0.17488432 0.03614065
0.15426376 0.042332977 -0.07353079 -0.200019 -0.13393319 -0.1148437 0.011048704 -0.22128135
-0.09728393 -0.12481409 0.07046601 0.17611513 0.006016284 -0.16553104 0.036330044 -0.057507068
0.21186796 0.15927395 -0.050681382 -0.24650112 -0.080557615 -0.012731224 0.23977777 -0.0020430088
-0.13765132 -0.16056469 0.22604915 -0.18409061 -0.19688082 -0.12735856 -0.075417966 0.14433298
-0.23636162 0.07523677 -0.08756918 0.07352853 0.06951836 0.037516087 -0.16618615 -0.15969718
-0.15633497 -0.21685031 -0.009402633 -0.07203132 0.14199251 -0.04367286 0.035987645 -0.20193353
-0.12758353 0.2401987 0.05052468 -0.08085027 -0.2346519 -0.050281405 0.05986622 -0.049820513
-0.14397663 -0.21655217 0.037028372 -0.20085588 0.16955197 0.17316759 0.20056808 0.18817198
-0.21305093 -0.021146566 0.1908325 -0.029380202 -0.24025536 0.08612397 -0.1848396 0.11995661
0.19067803 -0.20998898 -0.1971238 0.06731194 -0.16610557 -0.1922003 -0.18392837 0.23714668
0.19206673 0.22789907 0.20396191 -0.079945296 0.16298288 -0.2281887 -1.2725592e-05 -0.034775406
0.10950971 -0.06591156 0.13149914 0.0021490157 0.2187908 -0.1964719 -0.047362447 0.12631467
-0.13397759 0.12234664 0.08786765 0.09189659 0.15908238 0.04904285 -0.17033994 0.14516646
-0.10373214 -0.21509466 -0.23936358 -0.12807289 0.115453094 0.23567009 -0.2398555 0.091157794
0.015206307 -0.021199435 0.115009636 0.117197275 0.22509912 0.19471914 -0.07916775 -0.023512691
0.062209457 0.17370322 0.11112794 0.23720875 0.13898516 0.089933276 0.07227203 0.045253724
0.18921378 -0.12010741 0.17562169 -0.12454781 -0.0062013566 -0.055604845 0.14608264 0.026304483
0.20351452 0.08627105 0.22044498 0.11023101 0.113729775 0.04701683 0.24002478 -0.031826615
-0.24085471 -0.06706634 -0.054206103 -0.24981025 0.0783048 -0.23002201 0.07804397 -0.11356726
-0.06792709 0.06914154 -0.13395903 -0.22632197 0.003962457 0.15684387 0.20448413 0.24891874
-0.057744473 0.0025597513 -0.1139721 -0.24986756 -0.2414059 -0.045749545 -0.10376951 0.034745187
0.05068472 0.048714876 0.22802773 -0.24969232 0.0055645704 -0.2356115 0.1587883 -0.11384502
00000000: 980f f4bd a486 98bd a090 adbc d08e 8a3d
00000010: 96f4 443e 10ce 3abd 501c a83c 681d 65bd
00000020: 148c a13d de96 123e ec01 33be be03 78be
00000030: 266b 45be ee40 16be 8045 44bb dc3f bf3d
00000040: e016 70bc 5004 03be d87f 7abd 34b7 c9bd
00000050: 6a17 47be 8e00 42be 7002 05be ec49 6dbe
00000060: 1821 13bd 42fc 3e3e c852 50bd 00c4 023a
00000070: ac64 8fbd 620d 0f3e 0aec 02be 388f 56be
00000080: 36d3 0ebe a2df 2dbe bc12 5f3e c469 633e
00000090: c8a7 46bd 205a 273e 34f9 2b3e 780a 76bd
000000a0: d67c 37be d853 b83d 1ca2 aabd 60df 2d3c
000000b0: 7019 c33c a8e9 f43d 50c7 f43c c8e8 2dbe
000000c0: 2644 6abe 26b0 3c3e e86a ac3d e850 54be
000000d0: d08d 2e3d 1414 b1bd f0aa 6f3d b4d1 23be
000000e0: 64ba 6fbe e47c d7bd 1067 743d 9ca7 6fbe
000000f0: a803 7f3d 6401 e9bd 5a61 773e 6c2b 763e
00000100: aca6 163e fe9d 133e 8698 6b3e ec12 9bbd
00000110: f85e fabd 2c8e 883d 6235 353e f022 b7bd
00000120: 5c75 bbbd a091 f3bc f4b4 d53d 20ff 4f3d
00000130: f467 df3d 34b6 84bd e014 33be 3808 143d
00000140: 52f7 1d3e 5865 2d3d 5097 96bd c8d1 4cbe
00000150: c825 09be 2c33 ebbd a005 353c 9497 62be
00000160: cc3c c7bd 889e ffbd 7c50 903d 8657 343e
00000170: 4024 c53b f880 29be d0ce 143d 888c 6bbd
00000180: eaf3 583e b618 233e 4897 4fbd ca6a 7cbe
00000190: 64fb a4bd a096 50bc 4e88 753e 00e4 05bb
000001a0: 78f4 0cbe 126b 24be 6e79 673e 4082 3cbe
000001b0: 209b 49be 486a 02be bc74 9abd 06cc 133e
000001c0: c808 72be bc15 9a3d 7857 b3bd 2096 963d
000001d0: a45f 8e3d 78aa 193d b42c 2abe a887 23be
000001e0: 4616 20be 020e 5ebe 800d 1abc 2885 93bd
000001f0: 7c66 113e 50e2 32bd c867 133d aac7 4ebe
00000200: 42a5 02be a6f6 753e f8f2 4e3d d494 a5bd
00000210: 9648 70be e0f3 4dbd 4836 753d 9810 4cbd
00000220: 9c6e 13be dabf 5dbe 10ab 173d 2aad 4dbe
00000230: 089f 2d3e d852 313e b861 4d3e 28b0 403e
00000240: 062a 5abe 903b adbc 9869 433e c0ae f0bc
00000250: 8005 76be c461 b03d 9846 3dbe d0ab f53d
00000260: 1a41 433e 5a07 57be d2da 49be d8da 893d
00000270: 9417 2abe 28d0 44be b857 3cbe 94d6 723e
00000280: 24ad 443e 605e 693e 64db 503e 5cba a3bd
00000290: fce4 263e 4caa 69be 0080 55b7 a870 0ebd
000002a0: a046 e03d a4fc 86bd b6a7 063e 80d6 0c3b
000002b0: b20a 603e ee2f 49be 20ff 41bd a258 013e
000002c0: 6c31 09be e090 fa3d f4f3 b33d 4834 bc3d
000002d0: 7ee6 223e 28e1 483d 986d 2ebe 84a6 143e
000002e0: 8471 d4bd c641 5cbe ba1b 75be 8a25 03be
000002f0: ac72 ec3d 8053 713e ae9c 75be f0b0 ba3d
00000300: e023 793c 70aa adbc 2c8a eb3d 2005 f03d
00000310: 6280 663e 7464 473e b422 a2bd b09d c0bc
00000320: 58cf 7e3d 42df 313e 0c97 e33d dae6 723e
00000330: 2052 0e3e f02e b83d 5c03 943d f85b 393d
00000340: 42c1 413e e0fa f5bd 2cd6 333e ec12 ffbd
00000350: c034 cbbb e8c1 63bd b096 153e 807c d73c
00000360: 1c66 503e e0ae b03d 54bc 613e ccc0 e13d
00000370: 28eb e83d b894 403d 0ec9 753e a05c 02bd
00000380: 9ea2 76be 145a 89bd 3807 5ebd 42ce 7fbe
00000390: 445e a03d e48a 6bbe 84d5 9f3d f495 e8bd
000003a0: 5c1d 8bbd 149a 8d3d 8e2c 09be f2c0 67be
000003b0: 80d7 813b ae9b 203e 4a64 513e 8ee4 7e3e
000003c0: 7885 6cbd 80c1 273b 346a e9bd 48dd 7fbe
000003d0: 1c33 77be e063 3bbd 1c85 d4bd f850 0e3d
000003e0: c89a 4f3d 4089 473d 1a80 693e 58af 7fbe
000003f0: 0057 b63b 2444 71be 6699 223e 9427 e9bd

encoder.encoder_layer.linear2.bias f4 [16]
0.051845223 -0.20233244 -0.2023176 0.18381768 0.18566549 0.029060781 -0.13463947 0.16212302
0.23747614 -0.11208311 -0.19007817 0.048780918 -0.21501547 -0.24420848 0.16977641 0.06017527
00000000: a85b 543d 3c30 4fbe 582c 4fbe b43a 3c3e
00000010: 181f 3e3e e010 ee3c eede 09be 9403 263e
00000020: f22c 733e d48b e5bd daa3 42be 80ce 473d
00000030: 042d 5cbe ca11 7abe ded9 2d3e 587a 763d

encoder.encoder_layer.norm1.weight f4 [16]
1.0 1.0 1.0 1.0 1.0 1.0 1.0 1.0
1.0 1.0 1.0 1.0 1.0 1.0 1.0 1.0
00000000: 0000 803f 0000 803f 0000 803f 0000 803f
00000010: 0000 803f 0000 803f 0000 803f 0000 803f
00000020: 0000 803f 0000 803f 0000 803f 0000 803f
00000030: 0000 803f 0000 803f 0000 803f 0000 803f

encoder.encoder_layer.norm1.bias f4 [16]
0.0 0.0 0.0 0.0 0.0 0.0 0.0 0.0
0.0 0.0 0.0 0.0 0.0 0.0 0.0 0.0
00000000: 0000 0000 0000 0000 0000 0000 0000 0000
00000010: 0000 0000 0000 0000 0000 0000 0000 0000
00000020: 0000 0000 0000 0000 0000 0000 0000 0000
00000030: 0000 0000 0000 0000 0000 0000 0000 0000

encoder.encoder_layer.norm2.weight f4 [16]
1.0 1.0 1.0 1.0 1.0 1.0 1.0 1.0
1.0 1.0 1.0 1.0 1.0 1.0 1.0 1.0
00000000: 0000 803f 0000 803f 0000 803f 0000 803f
00000010: 0000 803f 0000 803f 0000 803f 0000 803f
00000020: 0000 803f 0000 803f 0000 803f 0000 803f
00000030: 0000 803f 0000 803f 0000 803f 0000 803f

encoder.encoder_layer.norm2.bias f4 [16]
0.0 0.0 0.0 0.0 0.0 0.0 0.0 0.0
0.0 0.0 0.0 0.0 0.0 0.0 0.0 0.0
00000000: 0000 0000 0000 0000 0000 0000 0000 0000
00000010: 0000 0000 0000 0000 0000 0000 0000 0000
00000020: 0000 0000 0000 0000 0000 0000 0000 0000
00000030: 0000 0000 0000 0000 0000 0000 0000 0000
