models/test_model.pth (torch, 788441 bytes, 155 tensors)

embedding.weight f4 [15, 16]
00000000: 0000 0000 0000 0000 0000 0000 0000 0000
00000010: 0000 0000 0000 0000 0000 0000 0000 0000
00000020: 0000 0000 0000 0000 0000 0000 0000 0000
00000030: 0000 0000 0000 0000 0000 0000 0000 0000
00000040: bcd6 8dbc e0af 5bbf 6ef5 9b3f 88ac 99be
00000050: d110 233e b719 6abe b2ce eabe aa04 e13e
00000060: de6b ca3f 7d7a 663e 07fc aabd 9b03 a8bf
00000070: 33cb e4bf f7e6 a53f 0abf 773e 565c 2a3f
00000080: 0aa5 983e aead 663f bff4 753e 033d fcbe
00000090: e4ff cebf b119 cb3f 14c2 2fbe bffe ebbe
000000a0: 4aba 63bf bae9 2a3e e254 843f c89d d93f
000000b0: eb66 0fbf 9be3 623e 405b 283f 5e40 e5bf
000000c0: c05c 3e3e f2b1 fabe 0201 043f 5b8b e8bf
000000d0: a293 2d3f b009 2dc0 b4c5 3c3e bd23 a83f
000000e0: a28e acbe 815f 7c3f b57e 193f 4649 c33f
000000f0: 0dfb 9f3f 0cdc f8be 7ea2 1dbf 8fcf 0fbe
00000100: 57a9 803f 772c 193f f17f 14bf 8ae1 96bd
00000110: 8f5c 99be e3a6 d8bd 4953 7b3e 6a48 673d
00000120: 74fc 69bf 31c6 7cbf a4c7 053f 5d06 87bf
00000130: 05eb 893f fb60 8cbf 4cc6 87be 50ea ac3f
00000140: dfcb e43f 99a5 2e3f 426a 1d3f 7e22 dd3f
00000150: 253f ef3e 20e0 86bf 6d18 ca3f f3ec 4dbf
00000160: f660 1bbf 62ea bd3b c39d d93f 7db4 f63d
00000170: 0611 08c0 4b5b 88bf e9cc cbbe e3ca b83f
00000180: f8be 143c 7078 623e 3012 40bf 8d74 1e40
00000190: f200 15bd 3096 a1be 424d d9be 0422 b4be
000001a0: 32d8 c9bf dc26 083f 6dcf 4a3f a7ea 503f
000001b0: 9b5f 98bf b7b2 84bf 69ab e8bf f2e8 ffbd
000001c0: 41fe 26bf 92c4 bbbf 2288 96be 77ec b7bf
000001d0: 8146 40bf b911 b03f debf 0dbf 51c2 a63f
000001e0: 66d7 11bf 6a34 703f e25d 09c0 efa0 e8bf
000001f0: 1323 c23f b67a 3ebf b60d dc3f bc59 b5be
00000200: 2b9c 02bf 13ac 4d3f 53fd adbf 4b28 f1bf
00000210: f191 6abe 6801 e9be 2cda d93e efdc 75be
00000220: 5a64 9d3e 1334 c43e c3f8 613e 3b96 033e
00000230: 1de7 d4bf d51c acbf 29a2 81be 4ff7 04bf
00000240: 50a9 02bf 9a0b 6a3f 80bc 1c3f 0ce0 acbf
00000250: 2549 36bf 4573 3a3f eca4 c63f 40e5 df3f
00000260: ac63 a5be 4c33 a83e 6e6f 9fbe b729 403f
00000270: afa9 fe3e 11c9 ecbf d9cb 36bf f00c 053f
00000280: faac 10bf 55c8 a7bf 29c8 9fbf b92f 66be
00000290: 49ea 6dbe 8742 e83f 2b2b 483f 658e 03bd
000002a0: f11f 5e3f c14f 1fbf d104 d13f 0cc1 bc3d
000002b0: e7c9 dc3c 9c1a 0cbe caa2 783f 0647 3d3f
000002c0: 3513 6dbf e632 013f 0b90 dc3e 0b30 c4be
000002d0: e0ff 8f3f cd2e 06be bbe0 1140 e5cf 1dbf
000002e0: e9cf de3f 3427 bf3d 7e8d 8a3f 6a91 f13f
000002f0: 2899 49bd ddf5 683f 1a74 20c0 e5b7 9abe
00000300: 37b2 0bbe ef9e 2b3c 303f 1cc0 f099 34bf
00000310: 3452 00c0 cfbe ca3f e320 8fbe 8d3f a1bf
00000320: f853 a2bf 3499 bfbf 0d2d 773f 23cc 1840
00000330: 0a96 99bc 5642 f0be 530c 37bf 2dc9 1bbf
00000340: c75f ffbc 9a5f babf 91f6 c33e 7c94 09bf
00000350: b74e dc3f eef2 953d 59d7 fd3e 7140 e8bf
00000360: 88be bd3e 5498 9c3f 71b3 80be 0db6 f73e
00000370: c925 8fbd 25d8 673e 0d58 a2bf 0902 aabf
00000380: 61fb 923f 2992 1dbf b9ea a63f b839 cfbd
00000390: 7b79 8d3f d0a3 e53d 9655 31c0 5c51 3fbd
000003a0: 6665 1b3f 36ed a03f a552 d03d 5d7f 82bf
000003b0: 994d 32bf cd67 943f dc3f 57bf 9198 f43f
0.0 0.0 0.0 0.0 0.0 0.0 0.0 0.0
0.0 0.0 0.0 0.0 0.0 0.0 0.0 0.0
-0.017314307 -0.8581524 1.2184274 -0.30014443 0.15924384 -0.22861372 -0.4586082 0.4394887
1.5814168 0.22507663 -0.08348852 -1.31261 -1.7874511 1.296111 0.2419397 0.66547143
0.29813415 0.90108764 0.24019144 -0.49265298 -1.6171842 1.5867215 -0.17163879 -0.46092793
-0.8895613 0.16690722 1.0338404 1.7001276 -0.56016415 0.22157137 0.65764236 -1.7910268
0.18590069 -0.48963886 0.5156404 -1.8167528 0.67803395 -2.7037163 0.18434793 1.3135906
-0.3370257 0.9858323 0.59958965 1.5256736 1.249849 -0.48605382 -0.6157607 -0.14044021
1.0051678 0.5983347 -0.58007723 -0.07367237 -0.2995343 -0.10578706 0.2454349 0.056465544
-0.9140084 -0.98739916 0.5225775 -1.0548817 1.0774847 -1.0967096 -0.26518476 1.3509007
1.7874717 0.6822143 0.6149026 1.7276151 0.46727863 -1.0537148 1.5788704 -0.8043968
-0.60694826 0.005795763 1.700127 0.12046144 -2.126039 -1.065286 -0.39804772 1.4436916
0.009078734 0.22116256 -0.7502775 2.4758637 -0.036377855 -0.31559896 -0.42441756 -0.35182202
-1.5769103 0.53184295 0.79222757 0.8160805 -1.1904176 -1.036704 -1.817731 -0.12495603
-0.6523171 -1.4669363 -0.29400736 -1.4369038 -0.7510758 1.3755409 -0.5537089 1.3028051
-0.56969297 0.9382998 -2.1463552 -1.8174113 1.5166954 -0.7440599 1.7191684 -0.35420024
-0.51019543 0.8034069 -1.3592933 -1.8840421 -0.22907235 -0.45508885 0.42549264 -0.2401006
0.30740625 0.3832098 0.22067551 0.12850277 -1.663303 -1.3446299 -0.2531903 -0.5193986
-0.510396 0.9142395 0.6122513 -1.3505874 -0.7120536 0.7283214 1.551908 1.7491837
-0.32302606 0.32851636 -0.31139702 0.7506365 0.49738833 -1.8498861 -0.71404797 0.51972866
-0.5651394 -1.3108011 -1.2482959 -0.22479142 -0.23233904 1.8145303 0.7819087 -0.03211822
0.8676749 -0.6223107 1.6329595 0.09216508 0.026951743 -0.13682026 0.97123396 0.739365
-0.9260743 0.5046829 0.43078646 -0.38317904 1.1249962 -0.1310379 2.2793415 -0.61645347
1.7407199 0.09333649 1.082443 1.8872502 -0.049218327 0.9100016 -2.5070863 -0.30218425
-0.13642202 0.010474904 -2.4413567 -0.7054739 -2.0050173 1.583948 -0.27954778 -1.2597519
-1.2681875 -1.4968629 0.9655312 2.3874595 -0.018748302 -0.4692561 -0.7150318 -0.60853845
-0.0311736 -1.4560425 0.38274053 -0.53742194 1.7211522 0.07321726 0.4957836 -1.8144666
0.37059426 1.2233987 -0.25136903 0.4838108 -0.06989629 0.22641046 -1.2683121 -1.3281871
1.1482965 -0.6155115 1.3040382 -0.10118431 1.1052698 0.112128854 -2.7708488 -0.04670845
0.60701597 1.2572391 0.10172013 -1.0195118 -0.69649655 1.1594177 -0.84081817 1.910906

pos_encoder.pe f4 [1, 5000, 16]
00000000: 0000 0000 0000 803f 0000 0000 0000 803f
00000010: 0000 0000 0000 803f 0000 0000 0000 803f
00000020: 0000 0000 0000 803f 0000 0000 0000 803f
00000030: 0000 0000 0000 803f 0000 0000 0000 803f
00000040: a46a 573f 4151 0a3f 3e39 9f3e 6b4e 733f
00000050: 7675 cc3d 98b8 7e3f 5b81 013d 3cdf 7f3f
00000060: 57d6 233c b9fc 7f3f 1c3e 4f3b acff 7f3f
00000070: 6d12 833a f8ff 7f3f 60cb a539 ffff 7f3f
00000080: b7c7 683f 3311 d5be 1b54 173f ec7b 4e3f
00000090: f86f 4b3e a5e5 7a3f c870 813d f97c 7f3f
000000a0: 3ed4 a33c e5f2 7f3f d83d cf3b b1fe 7f3f
000000b0: 6812 033b dfff 7f3f 5fcb 253a fdff 7f3f
000000c0: c381 103e 2670 7dbf c209 503f 582f 153f
000000d0: 6c4e 973e ef90 743f c0ff c13d 4fd9 7e3f
000000e0: 1fb9 f53c 83e2 7f3f 0d6e 1b3c 0dfd 7f3f
000000f0: 929b 443b b5ff 7f3f 0eb1 783a f9ff 7f3f
00000100: cfbd 41bf 3055 27bf de1d 743f b12e 9a3e
00000110: d761 c73e a7ca 6b3f 882e 013e 69f4 7d3f
00000120: dbcb 233d 94cb 7f3f c93c 4f3c c2fa 7f3f
00000130: 5712 833b 7aff 7f3f 5dcb a53a f3ff 7f3f
00000140: 107c 75bf 2c3c 913e 7ffc 7f3f e972 29bc
00000150: 4377 f53e 40a9 603f 1d3c 213e 81ce 7c3f
00000160: f4b6 4c3d 19ae 7f3f 7e85 813c cff7 7f3f
00000170: ddd6 a33b 2fff 7f3f 323e cf3a ebff 7f3f
00000180: 8c0f 8fbe b8cd 753f 4e78 723f 6d3f a4be
00000190: 688c 103f 3249 533f 6e20 413e e367 7b3f
000001a0: d19c 753d 128a 7f3f 436c 9b3c 34f4 7f3f
000001b0: 589b c43b d2fe 7f3f 06b1 f83a e2ff 7f3f
000001c0: 4630 283f bdff 403f 6ee8 4c3f bc74 19bf
000001d0: 72eb 243f b3cc 433f 50d3 603e eac0 793f
000001e0: 323e 8f3d 815f 7f3f a252 b53c f2ef 7f3f
000001f0: c55f e53b 65fe 7f3f ec11 113b d7ff 7f3f
00000200: 9546 7d3f f6fd 14be 7e06 133f e591 51bf
00000210: a6a4 373f 605b 323f 5126 803e 03da 773f
00000220: 50aa a33d 652e 7f3f 8a38 cf3c 08eb 7f3f
00000230: 1212 033c e7fd 7f3f 54cb 253b caff 7f3f
00000240: 3201 d33e d53f 69bf ee1f 953e a2e6 74bf
00000250: 1c88 483f d521 1f3f 2dc2 8f3e a9b3 753f
00000260: 3e12 b83d c2f6 7e3f ea1d e93c 76e5 7f3f
00000270: 3a74 133c 59fd 7f3f bb84 3a3b bcff 7f3f
00000280: f844 0bbf 64cd 56bf 9770 a9bc fbf1 7fbf
00000290: a46a 573f 4151 0a3f 3d39 9f3e 6b4e 733f
000002a0: 7675 cc3d 98b8 7e3f 5981 013d 3cdf 7f3f
000002b0: 57d6 233c b9fc 7f3f 213e 4f3b acff 7f3f
000002c0: 5cff 7fbf 7205 913b 1f41 a9be 8d9b 71bf
000002d0: 2a26 643f c33d e83e 8b87 ae3e e4aa 703f
000002e0: 72d3 e03d e873 7e3f 6873 0e3d 5bd8 7f3f
000002f0: 6938 343c 09fc 7f3f 86f7 633b 9bff 7f3f
00000300: d85c 09bf d006 583f 2491 1bbf 564f 4bbf
00000310: 1d9a 6e3f f786 b93e 2ca9 bd3e c3c9 6d3f
00000320: ac2b f53d b528 7e3f 1965 1b3d d2d0 7f3f
00000330: 709a 443c 48fb 7f3f e9b0 783b 87ff 7f3f
00000340: 2220 d73e 6f4e 683f 4c14 53bf 9dd9 10bf
00000350: c0ab 763f 9df5 883e 3f9a cc3e c3ab 6a3f
00000360: d0be 043e 00d7 7d3f 6556 283d a1c8 7f3f
00000370: 6afc 543c 76fa 7f3f 25b5 863b 72ff 7f3f
00000380: 7298 7d3f d704 0c3e b3a8 75bf 0a0d 90be
00000390: 6f46 7c3f e70b 2e3e f456 db3e b151 673f
000003a0: 64e4 0e3e cc7e 7d3f 4347 353d c9bf 7f3f
000003b0: 555e 653c 94f9 7f3f d511 913b 5cff 7f3f
000003c0: 4479 263f e87a 42bf 75e0 7fbf 9622 fe3c
000003d0: d55b 7f3f bade 903d 83db e93e 68bc 633f
000003e0: 4f06 193e 1a20 7d3f aa37 423d 49b6 7f3f
000003f0: 32c0 753c a1f8 7f3f 846e 9b3b 43ff 7f3f
0.0 1.0 0.0 1.0 0.0 1.0 0.0 1.0
0.0 1.0 0.0 1.0 0.0 1.0 0.0 1.0
0.84147096 0.54030234 0.3109836 0.9504153 0.099833414 0.9950042 0.031617504 0.99950004
0.009999833 0.99995 0.0031622713 0.999995 0.0009999998 0.9999995 0.0003162278 0.99999994
0.9092974 -0.41614684 0.5911271 0.8065784 0.19866931 0.9800666 0.063203394 0.9980007
0.019998666 0.9998 0.006324511 0.99998003 0.0019999985 0.99999803 0.0006324555 0.9999998
0.14112 -0.9899925 0.8126489 0.58275366 0.2955202 0.9553365 0.094726086 0.99550337
0.0299955 0.99955004 0.009486687 0.999955 0.0029999954 0.9999955 0.00094868324 0.9999996
-0.7568025 -0.6536436 0.95358074 0.30113748 0.38941833 0.921061 0.12615407 0.99201065
0.039989334 0.9992001 0.01264877 0.99992 0.003999989 0.999992 0.0012649108 0.9999992
-0.9589243 0.2836622 0.99994653 -0.010342338 0.47942552 0.87758255 0.15745588 0.987526
0.049979165 0.99875027 0.015810724 0.999875 0.004999979 0.99998754 0.0015811382 0.99999875
-0.2794155 0.96017027 0.9471482 -0.3207964 0.5646424 0.8253356 0.18860027 0.98205394
0.059964005 0.99820054 0.018972522 0.99982 0.0059999637 0.999982 0.0018973656 0.9999982
0.6569866 0.75390226 0.8004216 -0.5994375 0.6442176 0.7648422 0.2195561 0.9755999
0.06994285 0.997551 0.022134129 0.999755 0.006999942 0.9999755 0.0022135926 0.99999756
0.98935825 -0.14550003 0.5743178 -0.8186324 0.7173561 0.6967068 0.25029233 0.96817034
0.07991469 0.9968017 0.025295515 0.99968004 0.007999914 0.999968 0.0025298195 0.9999968
0.4121185 -0.91113025 0.29125923 -0.9566442 0.78332686 0.62161 0.28077832 0.95977265
0.089878544 0.9959527 0.028456647 0.99959505 0.008999879 0.9999595 0.0028460461 0.99999595
-0.5440211 -0.8390715 -0.02068357 -0.9997861 0.84147096 0.54030234 0.31098357 0.9504153
0.099833414 0.9950042 0.031617496 0.99950004 0.009999833 0.99995 0.0031622725 0.999995
-0.9999902 0.004425698 -0.33057496 -0.94377977 0.89120734 0.4535962 0.34087786 0.9401076
0.1097783 0.9939561 0.03477803 0.9993951 0.010999777 0.9999395 0.0034784987 0.999994
-0.53657293 0.84385395 -0.6076834 -0.7941793 0.9320391 0.36235783 0.3704313 0.9288599
0.119712204 0.99280864 0.03793821 0.9992801 0.011999711 0.999928 0.0037947244 0.9999928
0.42016703 0.9074468 -0.82452846 -0.5658205 0.9635582 0.26749888 0.3996143 0.9166834
0.12963414 0.9915619 0.041098017 0.9991551 0.012999633 0.9999155 0.0041109496 0.99999154
0.9906074 0.13673721 -0.9596054 -0.28134948 0.98544973 0.16996728 0.42839777 0.90359026
0.13954312 0.990216 0.044257414 0.99902016 0.013999541 0.999902 0.0044271746 0.9999902
0.65028787 -0.7596879 -0.9995187 0.031022351 0.997495 0.07073732 0.45675287 0.8895936
0.14943813 0.9887711 0.047416367 0.9988752 0.014999436 0.9998875 0.004743399 0.99998873

pos_decoder.pe f4 [1, 5000, 16]
00000000: 0000 0000 0000 803f 0000 0000 0000 803f
00000010: 0000 0000 0000 803f 0000 0000 0000 803f
00000020: 0000 0000 0000 803f 0000 0000 0000 803f
00000030: 0000 0000 0000 803f 0000 0000 0000 803f
00000040: a46a 573f 4151 0a3f 3e39 9f3e 6b4e 733f
00000050: 7675 cc3d 98b8 7e3f 5b81 013d 3cdf 7f3f
00000060: 57d6 233c b9fc 7f3f 1c3e 4f3b acff 7f3f
00000070: 6d12 833a f8ff 7f3f 60cb a539 ffff 7f3f
00000080: b7c7 683f 3311 d5be 1b54 173f ec7b 4e3f
00000090: f86f 4b3e a5e5 7a3f c870 813d f97c 7f3f
000000a0: 3ed4 a33c e5f2 7f3f d83d cf3b b1fe 7f3f
000000b0: 6812 033b dfff 7f3f 5fcb 253a fdff 7f3f
000000c0: c381 103e 2670 7dbf c209 503f 582f 153f
000000d0: 6c4e 973e ef90 743f c0ff c13d 4fd9 7e3f
000000e0: 1fb9 f53c 83e2 7f3f 0d6e 1b3c 0dfd 7f3f
000000f0: 929b 443b b5ff 7f3f 0eb1 783a f9ff 7f3f
00000100: cfbd 41bf 3055 27bf de1d 743f b12e 9a3e
00000110: d761 c73e a7ca 6b3f 882e 013e 69f4 7d3f
00000120: dbcb 233d 94cb 7f3f c93c 4f3c c2fa 7f3f
00000130: 5712 833b 7aff 7f3f 5dcb a53a f3ff 7f3f
00000140: 107c 75bf 2c3c 913e 7ffc 7f3f e972 29bc
00000150: 4377 f53e 40a9 603f 1d3c 213e 81ce 7c3f
00000160: f4b6 4c3d 19ae 7f3f 7e85 813c cff7 7f3f
00000170: ddd6 a33b 2fff 7f3f 323e cf3a ebff 7f3f
00000180: 8c0f 8fbe b8cd 753f 4e78 723f 6d3f a4be
00000190: 688c 103f 3249 533f 6e20 413e e367 7b3f
000001a0: d19c 753d 128a 7f3f 436c 9b3c 34f4 7f3f
000001b0: 589b c43b d2fe 7f3f 06b1 f83a e2ff 7f3f
000001c0: 4630 283f bdff 403f 6ee8 4c3f bc74 19bf
000001d0: 72eb 243f b3cc 433f 50d3 603e eac0 793f
000001e0: 323e 8f3d 815f 7f3f a252 b53c f2ef 7f3f
000001f0: c55f e53b 65fe 7f3f ec11 113b d7ff 7f3f
00000200: 9546 7d3f f6fd 14be 7e06 133f e591 51bf
00000210: a6a4 373f 605b 323f 5126 803e 03da 773f
00000220: 50aa a33d 652e 7f3f 8a38 cf3c 08eb 7f3f
00000230: 1212 033c e7fd 7f3f 54cb 253b caff 7f3f
00000240: 3201 d33e d53f 69bf ee1f 953e a2e6 74bf
00000250: 1c88 483f d521 1f3f 2dc2 8f3e a9b3 753f
00000260: 3e12 b83d c2f6 7e3f ea1d e93c 76e5 7f3f
00000270: 3a74 133c 59fd 7f3f bb84 3a3b bcff 7f3f
00000280: f844 0bbf 64cd 56bf 9770 a9bc fbf1 7fbf
00000290: a46a 573f 4151 0a3f 3d39 9f3e 6b4e 733f
000002a0: 7675 cc3d 98b8 7e3f 5981 013d 3cdf 7f3f
000002b0: 57d6 233c b9fc 7f3f 213e 4f3b acff 7f3f
000002c0: 5cff 7fbf 7205 913b 1f41 a9be 8d9b 71bf
000002d0: 2a26 643f c33d e83e 8b87 ae3e e4aa 703f
000002e0: 72d3 e03d e873 7e3f 6873 0e3d 5bd8 7f3f
000002f0: 6938 343c 09fc 7f3f 86f7 633b 9bff 7f3f
00000300: d85c 09bf d006 583f 2491 1bbf 564f 4bbf
00000310: 1d9a 6e3f f786 b93e 2ca9 bd3e c3c9 6d3f
00000320: ac2b f53d b528 7e3f 1965 1b3d d2d0 7f3f
00000330: 709a 443c 48fb 7f3f e9b0 783b 87ff 7f3f
00000340: 2220 d73e 6f4e 683f 4c14 53bf 9dd9 10bf
00000350: c0ab 763f 9df5 883e 3f9a cc3e c3ab 6a3f
00000360: d0be 043e 00d7 7d3f 6556 283d a1c8 7f3f
00000370: 6afc 543c 76fa 7f3f 25b5 863b 72ff 7f3f
00000380: 7298 7d3f d704 0c3e b3a8 75bf 0a0d 90be
00000390: 6f46 7c3f e70b 2e3e f456 db3e b151 673f
000003a0: 64e4 0e3e cc7e 7d3f 4347 353d c9bf 7f3f
000003b0: 555e 653c 94f9 7f3f d511 913b 5cff 7f3f
000003c0: 4479 263f e87a 42bf 75e0 7fbf 9622 fe3c
000003d0: d55b 7f3f bade 903d 83db e93e 68bc 633f
000003e0: 4f06 193e 1a20 7d3f aa37 423d 49b6 7f3f
000003f0: 32c0 753c a1f8 7f3f 846e 9b3b 43ff 7f3f
0.0 1.0 0.0 1.0 0.0 1.0 0.0 1.0
0.0 1.0 0.0 1.0 0.0 1.0 0.0 1.0
0.84147096 0.54030234 0.3109836 0.9504153 0.099833414 0.9950042 0.031617504 0.99950004
0.009999833 0.99995 0.0031622713 0.999995 0.0009999998 0.9999995 0.0003162278 0.99999994
0.9092974 -0.41614684 0.5911271 0.8065784 0.19866931 0.9800666 0.063203394 0.9980007
0.019998666 0.9998 0.006324511 0.99998003 0.0019999985 0.99999803 0.0006324555 0.9999998
0.14112 -0.9899925 0.8126489 0.58275366 0.2955202 0.9553365 0.094726086 0.99550337
0.0299955 0.99955004 0.009486687 0.999955 0.0029999954 0.9999955 0.00094868324 0.9999996
-0.7568025 -0.6536436 0.95358074 0.30113748 0.38941833 0.921061 0.12615407 0.99201065
0.039989334 0.9992001 0.01264877 0.99992 0.003999989 0.999992 0.0012649108 0.9999992
-0.9589243 0.2836622 0.99994653 -0.010342338 0.47942552 0.87758255 0.15745588 0.987526
0.049979165 0.99875027 0.015810724 0.999875 0.004999979 0.99998754 0.0015811382 0.99999875
-0.2794155 0.96017027 0.9471482 -0.3207964 0.5646424 0.8253356 0.18860027 0.98205394
0.059964005 0.99820054 0.018972522 0.99982 0.0059999637 0.999982 0.0018973656 0.9999982
0.6569866 0.75390226 0.8004216 -0.5994375 0.6442176 0.7648422 0.2195561 0.9755999
0.06994285 0.997551 0.022134129 0.999755 0.006999942 0.9999755 0.0022135926 0.99999756
0.98935825 -0.14550003 0.5743178 -0.8186324 0.7173561 0.6967068 0.25029233 0.96817034
0.07991469 0.9968017 0.025295515 0.99968004 0.007999914 0.999968 0.0025298195 0.9999968
0.4121185 -0.91113025 0.29125923 -0.9566442 0.78332686 0.62161 0.28077832 0.95977265
0.089878544 0.9959527 0.028456647 0.99959505 0.008999879 0.9999595 0.0028460461 0.99999595
-0.5440211 -0.8390715 -0.02068357 -0.9997861 0.84147096 0.54030234 0.31098357 0.9504153
0.099833414 0.9950042 0.031617496 0.99950004 0.009999833 0.99995 0.0031622725 0.999995
-0.9999902 0.004425698 -0.33057496 -0.94377977 0.89120734 0.4535962 0.34087786 0.9401076
0.1097783 0.9939561 0.03477803 0.9993951 0.010999777 0.9999395 0.0034784987 0.999994
-0.53657293 0.84385395 -0.6076834 -0.7941793 0.9320391 0.36235783 0.3704313 0.9288599
0.119712204 0.99280864 0.03793821 0.9992801 0.011999711 0.999928 0.0037947244 0.9999928
0.42016703 0.9074468 -0.82452846 -0.5658205 0.9635582 0.26749888 0.3996143 0.9166834
0.12963414 0.9915619 0.041098017 0.9991551 0.012999633 0.9999155 0.0041109496 0.99999154
0.9906074 0.13673721 -0.9596054 -0.28134948 0.98544973 0.16996728 0.42839777 0.90359026
0.13954312 0.990216 0.044257414 0.99902016 0.013999541 0.999902 0.0044271746 0.9999902
0.65028787 -0.7596879 -0.9995187 0.031022351 0.997495 0.07073732 0.45675287 0.8895936
0.14943813 0.9887711 0.047416367 0.9988752 0.014999436 0.9998875 0.004743399 0.99998873

encoder.encoder_layer.self_attn.in_proj_weight f4 [48, 16]
00000000: 8312 a23d 7958 65bd 8cb5 55bd 2c10 1abe
00000010: 047a 28be e3b4 52be 3c44 31be 9098 85be
00000020: 7ea5 533e c778 093d f040 0a3e db1c 403c
00000030: 4007 95be 6358 e6bd 61f2 013e 2308 613d
00000040: 30ac 9fbd 8a0c eb3d 67dc 893c b999 0bbe
00000050: 303d 3bbd fbaa e6bd 1150 eebd 9b39 35be
00000060: ceaa 79bd a69c 843e 8204 9abe d26c 5f3e
00000070: df09 963e b3c4 1f3e aa83 62be fe0c a9bd
00000080: 375f de3d 8599 963e af91 8d3e 3d2d 113e
00000090: bc55 62be 8522 403d d886 f13d c682 1ebe
000000a0: 79b6 86be 85e9 fb3d a404 46be 8dc8 0ebe
000000b0: d5b3 643e 180b 88be e16c aa3d 411c ed3d
000000c0: 7138 703e 9350 25be b62c 413d a510 6abe
000000d0: 6087 2ebe 220e 89be 1553 873e e3e6 8dbe
000000e0: abcd bbbc 7f8d 763e 204d e73c ada6 34bd
000000f0: e0b9 97be e649 343e 0707 05bd 44b5 85be
00000100: 9be7 99be b870 8f3e b43d 223c b2d7 88be
00000110: e188 9fbd 1a99 58bb c366 213d eab4 0c3e
00000120: 1e9b fdbd 103e 2fbe f148 f9bc 7113 833e
00000130: 3801 90be b22a 61be 7381 103e dc87 143e
00000140: b990 cb3d 3d9e 583e 1759 753e 6171 50be
00000150: 40b1 9bbe afc8 6abe b4f4 373e aaa9 9cbe
00000160: 6f94 773d 5ce7 41be 381b 0abe 3983 1abe
00000170: d078 7ebe d758 0abe 9e29 4e3e 3438 28be
00000180: 3d7a 1d3e 9033 98be 10f9 843e b246 3bbe
00000190: 29dd 25be c002 8ebe f6e4 2bbe 6a71 acbd
000001a0: 92c5 9abd 6dd3 1f3e c72f 63be 10a9 143e
000001b0: 21f8 873d 940e bc3b af33 9b3d fd5b 10be
000001c0: cdc2 de3d c2cd ddbd 94f8 19bd 74c4 38bd
000001d0: fcd7 6dbe 2ed4 64be ff31 8bbe 243f 85be
000001e0: 1943 87be 2bd2 91bd 65db 31be 3435 50bd
000001f0: df70 62be f414 22be 2ce8 b7bd aef5 4bbe
00000200: d771 043e 2165 7bbe 69fb 9dbd ce6e 01be
00000210: a2ac b13d 1fa2 9cbe 4700 8ebe 82fe aebd
00000220: 2fb3 d4bd 34a3 bdbd 72cd d13d 5944 613e
00000230: ac6c 1bbe 118d 30bc b7fd 5cbe 09ff 00be
00000240: 38dc 803e 09b5 cc3d d3ff 0c3e 1d2d 6f3e
00000250: 6cc9 5abe 361b 0e3e 8944 8b3e fa1c 613e
00000260: 9cbe 733d d547 47be 317d 42be 3ac1 65be
00000270: 134a 553d 32f3 503e bac1 8bbe 5f2b bd3d
00000280: 068d 373e 4bc0 8ebe b197 9cbe 9f5d 1abb
00000290: 1613 9cbe 8814 a1bd f4ca 9abe 7cd6 fabd
000002a0: fae6 8f3e 1c39 8d3d 1c1e 0c3e c559 a93d
000002b0: 7170 9dbc 1aea b33d 42d8 643e b416 8b3c
000002c0: 7806 8c3e add5 50be 29f5 623e e960 7a3d
000002d0: e756 06be b096 6e3e 8d50 89bc 033b 823d
000002e0: 1f93 6e3d 6199 0e3e 544c 5c3d bd57 a3bd
000002f0: 647e 973e 118f c4bd 0404 3ebe 6aa1 6abe
00000300: e953 36be bbd8 913c 767b 79be ffbe 1a3e
00000310: a01d 93be e30b 653d 5da3 623e ac1d b03d
00000320: a535 ccbd 96aa 8a3e 1da9 61be c368 2a3e
00000330: dd7b 7bbd 77e2 323e acd5 fdbc 4e39 713e
00000340: 3861 e73d 6dbc 07bd c06c 8a3e 678a 3dbe
00000350: ec28 8a3e 1cd7 8cbe 8eb4 923d 0a3c 853e
00000360: 13fb 7b3e 2b37 b83d aa28 3b3e 4569 0e3e
00000370: 3943 68bd bfc1 87bc 6f9a 753e 8999 4b3e
00000380: c58c 143e 49ad 90be bc3e 90be 3c6b 64be
00000390: 0cfb 003e a2ba 90be cfa2 68be e6a7 37be
000003a0: e8fd 313d 1fff 8b3e 757c de3b 3962 e23d
000003b0: fc43 60bd 068e 93bd d641 89bd 9ea3 2b3e
000003c0: 3814 97bb 6664 913e b85a 2d3e c546 9c3d
000003d0: 3b4c 84be 167a 4d3e 34ad d1bc 1d45 953c
000003e0: c4b8 96be 1ab7 7b3e 4159 413e be96 fcbd
000003f0: d1c3 973e f1e4 f9bd 0f27 143e 0670 993e
0.07913687 -0.055992577 -0.05217509 -0.15045232 -0.16452795 -0.20576815 -0.17311186 -0.26092958
0.20668599 0.033562448 0.13501334 0.01172563 -0.29107094 -0.11247327 0.12690116 0.0549394
-0.07796514 0.11477001 0.016828729 -0.1363286 -0.04571265 -0.11263081 -0.11636365 -0.17697756
-0.060953908 0.25900763 -0.30081564 0.21818855 0.29304406 0.15602379 -0.22120538 -0.08254431
0.108580045 0.29414 0.2765021 0.14177413 -0.22103018 0.04690792 0.117932975 -0.15479574
-0.2631109 0.123004 -0.19337708 -0.13943692 0.22334225 -0.26570964 0.08321548 0.11577655
0.2345903 -0.16144018 0.04716178 -0.22857912 -0.17043829 -0.26768595 0.26430574 -0.27715215
-0.022925219 0.24077414 0.028235018 -0.044104267 -0.29634 0.17606315 -0.032477405 -0.26114857
-0.30059513 0.28015685 0.0099024065 -0.26727062 -0.077897795 -0.003305024 0.03940464 0.13740888
-0.12383102 -0.17113519 -0.030430289 0.2560077 -0.2812593 -0.21988943 0.14111881 0.14504951
0.09939713 0.21154113 0.23959766 -0.2035575 -0.3040867 -0.22928117 0.1796444 -0.30598193
0.06044429 -0.18935913 -0.13486946 -0.1508912 -0.24850774 -0.13510452 0.20133063 -0.1642769
0.15378661 -0.2972684 0.2597127 -0.18288687 -0.16197647 -0.27736473 -0.1678656 -0.084200695
-0.07557215 0.15607996 -0.22186194 0.14517617 0.06639124 0.0057390425 0.07578217 -0.1409759
0.10876999 -0.10830261 -0.03759058 -0.045109227 -0.23226923 -0.22346565 -0.27186581 -0.26024735
-0.2641838 -0.071201645 -0.17368849 -0.05083199 -0.2211337 -0.15828305 -0.0897983 -0.19917938
0.12934051 -0.24550296 -0.07713968 -0.12639925 0.08675505 -0.3059244 -0.27734587 -0.08544637
-0.10385739 -0.09259644 0.10244264 0.21998729 -0.15178174 -0.01077582 -0.2158116 -0.12597288
0.25168014 0.09995467 0.13769464 0.23357053 -0.21365899 0.13877568 0.27200726 0.2198371
0.05950795 -0.19460995 -0.18993069 -0.22436991 0.052072596 0.20405272 -0.2729624 0.09236788
0.1792489 -0.27881083 -0.3058448 -0.0023554338 -0.3048331 -0.07865244 -0.30232966 -0.12247941
0.2810591 0.068956584 0.13683361 0.08269075 -0.019218655 0.08784886 0.22348121 0.0169786
0.27348685 -0.20394011 0.22163834 0.061127577 -0.13119088 0.2329967 -0.016762042 0.06358912
0.058245774 0.13925697 0.05378373 -0.07975719 0.29588616 -0.095976 -0.1855622 -0.22913137
-0.17805447 0.01780354 -0.24363503 0.15111922 -0.2873354 0.05591954 0.2213263 0.085994095
-0.099711694 0.27083272 -0.22037168 0.16641526 -0.061397422 0.17469202 -0.030985676 0.23557016
0.1129784 -0.03313868 0.27036095 -0.18509828 0.26984346 -0.27507865 0.07163344 0.2602237
0.24607496 0.089948975 0.18277231 0.13907345 -0.056704734 -0.016571878 0.23984693 0.19882788
0.14506824 -0.28257206 -0.28172863 -0.22306532 0.12595767 -0.2826739 -0.22718357 -0.17935142
0.043455034 0.2734308 0.006789739 0.11053891 -0.054752335 -0.07204823 -0.0670201 0.16761634
-0.0046105646 0.2839691 0.16929138 0.07630686 -0.2583941 0.20066103 -0.025595285 0.018221432
-0.2943784 0.24581566 0.18881704 -0.12333439 0.29641584 -0.1220187 0.14468025 0.2996828

encoder.encoder_layer.self_attn.in_proj_bias f4 [48]
00000000: 0000 0000 0000 0000 0000 0000 0000 0000
00000010: 0000 0000 0000 0000 0000 0000 0000 0000
00000020: 0000 0000 0000 0000 0000 0000 0000 0000
00000030: 0000 0000 0000 0000 0000 0000 0000 0000
00000040: 0000 0000 0000 0000 0000 0000 0000 0000
00000050: 0000 0000 0000 0000 0000 0000 0000 0000
00000060: 0000 0000 0000 0000 0000 0000 0000 0000
00000070: 0000 0000 0000 0000 0000 0000 0000 0000
00000080: 0000 0000 0000 0000 0000 0000 0000 0000
00000090: 0000 0000 0000 0000 0000 0000 0000 0000
000000a0: 0000 0000 0000 0000 0000 0000 0000 0000
000000b0: 0000 0000 0000 0000 0000 0000 0000 0000
0.0 0.0 0.0 0.0 0.0 0.0 0.0 0.0
0.0 0.0 0.0 0.0 0.0 0.0 0.0 0.0
0.0 0.0 0.0 0.0 0.0 0.0 0.0 0.0
0.0 0.0 0.0 0.0 0.0 0.0 0.0 0.0
0.0 0.0 0.0 0.0 0.0 0.0 0.0 0.0
0.0 0.0 0.0 0.0 0.0 0.0 0.0 0.0

encoder.encoder_layer.self_attn.out_proj.weight f4 [16, 16]
00000000: 2067 5e3d 807a 0a3b 94cb 08be c8a1 09bd
00000010: d417 e73d 1077 d73c 9aff 113e acaf 90bd
00000020: e0aa 2b3d 40c0 2dbd 660b 493e 2a05 493e
00000030: 483d 683d c029 593c 662e 0dbe 223e 3fbe
00000040: 46f2 583e a05f c23c e80b f3bd 8ab9 74be
00000050: 0841 f7bd a083 13bd 509d 6f3d 406f 7c3c
00000060: e076 a33c 0008 b6bc da05 023e b4ee f63d
00000070: 0000 5838 00d9 373c 4488 dcbd da6e 1e3e
00000080: 40ce 74be 5823 d4bd c8da c8bd 5019 b2bd
00000090: 101c 843d b0a5 5dbe d47a 313e 541f 2a3e
000000a0: c0a2 713e 7225 25be 20fe 7bbd a80b 3f3d
000000b0: 70b1 f3bd 687b 3e3e 9c54 84bd d4f6 a8bd
000000c0: e843 363d 92a8 6bbe c04c 1fbc 6e5d 653e
000000d0: a63a 6abe 00ae bd3c 5068 0e3e 60f7 203c
000000e0: b8d8 143d 786d 6a3d b401 24be 9234 69be
000000f0: 865d 1a3e 8e31 47be c0ad c33c f6ee 723e
00000100: 8455 0ebe 0045 bc3a 2a1e 08be 9094 cabd
00000110: c8e2 c63d fe2e 40be a273 61be 187d 4b3d
00000120: ee0e 313e 0c0e fb3d 806a 073e 90ca 20bd
00000130: 60a9 fdbc 1838 783e 288b 2b3d 602a 3c3d
00000140: c068 583e ee32 413e d410 b03d 5408 af3d
00000150: 58d7 2f3d e024 903c 2633 723e a68d 0ebe
00000160: 80fa 403d 8458 ad3d d09a 96bc b0c9 423d
00000170: de37 733e 64bf 523e f27d 583e aad4 68be
00000180: c0ab 53be 40cc fc3c 205b 8d3c 76c0 373e
00000190: da54 103e aeae 2abe 0c8b 54be 82d4 51be
000001a0: 9eaf 723e 1e32 6ebe b8c8 9fbd 7cea a73d
000001b0: e2fc 033e 5830 b83d c047 1bbc 0a1a 5b3e
000001c0: fc98 fbbd 84f2 b23d 4e76 4fbe d883 febd
000001d0: a43e 5c3e 94ea 22be 40f2 353d 1c7f 0c3e
000001e0: 5e16 6bbe 72bd 493e 628e 75be 4820 6bbe
000001f0: 8494 d53d b826 573d 9002 bc3c ce77 2b3e
00000200: 580b cc3d 6078 d2bc 16b6 23be 5c22 92bd
00000210: 203d e8bd 50c5 e03d e00a 493d 269c 403e
00000220: 68a9 5dbd dc3f ed3d fc8b c43d dc67 673e
00000230: 00ae 34bb 4041 fb3b 0095 37be b246 79be
00000240: 9cb0 ce3d 705f 083e ee52 633e e0a7 603e
00000250: 6c12 d13d 10c3 ad3c 30e1 333e 7cb3 67be
00000260: d837 bbbd 40a2 ce3b 0043 573b b80c 49bd
00000270: caaa 3a3e 8c71 02be 2629 7abe a035 4c3d
00000280: c0ad 78bc 5036 99bd 609f 453c 9a98 6cbe
00000290: 6ca1 83bd 282e b23d 6ced 99bd 9047 4e3d
000002a0: 8087 2a3b 1a72 693e ac56 a4bd 0e55 463e
000002b0: 34ce 2fbe 801c 593e 5631 263e a055 71be
000002c0: cef9 263e d8eb 86bd 3885 d53d 9090 49be
000002d0: c8b9 6cbd 681e 03bd 1406 91bd 98ea a2bd
000002e0: 3a18 1fbe c824 6c3d c8d3 b73d 949e 083e
000002f0: 2833 9abd 5ae1 5e3e c4a5 b7bd 008e d13d
00000300: 8c38 8ebd 0a81 29be a644 77be 00af 51be
00000310: 70fc 8fbc d406 083e 1ef4 46be c034 803b
00000320: 80b4 ff3d 484f 533e 74b5 9f3d bed7 7bbe
00000330: e07b 28bd 34f3 693e 1c59 3e3e 0833 6a3e
00000340: 2085 173c 2cf1 a3bd e650 69be f472 343e
00000350: d0ea 1bbe c864 c83d dc3d 313e 6415 373e
00000360: 22c0 40be c479 1f3e 3655 7e3e 26d2 04be
00000370: 1eb7 10be ce94 773e e8d1 ce3d 765d 6ebe
00000380: f8cf cf3d d4d1 c23d 281e 70bd 4882 073d
00000390: 58a7 72be 9073 a2bc f440 f43d e099 e0bd
000003a0: f012 8cbc 620d 29be ac5c ec3d 08f4 503e
000003b0: 5087 85bd c8a8 e53d 48c5 993d 04b8 eabd
000003c0: b0a1 2abd 76ad 67be 8064 c1bd aea7 743e
000003d0: 64a9 ed3d 2cc5 b5bd 6072 1dbc 3859 4fbd
000003e0: a63f 3d3e c0c9 f9bd fc98 f1bd 6ef0 6c3e
000003f0: 304d 0cbe bae9 18be 9af9 1bbe 06ae 643e
0.054297566 0.0021130145 -0.13358909 -0.033601552 0.11283842 0.02630189 0.1425766 -0.07064757
0.041911006 -0.042419672 0.19633254 0.19630876 0.056699067 0.013254583 -0.13787231 -0.18676046
0.2118617 0.023727238 -0.11867505 -0.23898903 -0.120729506 -0.0360142 0.058499634 0.015407383
0.019954145 -0.022220612 0.12697545 0.12057248 5.1498413e-05 0.01122117 -0.10768178 0.15471974
-0.23906803 -0.10358304 -0.09807354 -0.08696234 0.06450665 -0.21645236 0.17332011 0.16613513
0.2359724 -0.16127566 -0.06152165 0.046641976 -0.11899078 0.18601763 -0.064614505 -0.08250204
0.044498354 -0.23013523 -0.0097228885 0.22398922 -0.22873935 0.023154259 0.1390698 0.009824604
0.03633949 0.057233304 -0.16016275 -0.2277396 0.15074739 -0.19452497 0.023886561 0.23723969
-0.13899809 0.0014363825 -0.13292757 -0.09891617 0.09711224 -0.18767926 -0.22016767 0.049679846
0.17290851 0.122585386 0.1322422 -0.03925568 -0.030964553 0.24240148 0.041880757 0.04593885
0.21133709 0.18867084 0.0859696 0.0854651 0.042929977 0.017595708 0.23652324 -0.13921222
0.047113895 0.08464149 -0.018384367 0.047555625 0.2375178 0.20580822 0.21141794 -0.22737375
-0.20670986 0.030859113 0.017255366 0.17944512 0.14094868 -0.16668198 -0.20756167 -0.20491222
0.23699805 -0.23261306 -0.07801956 0.08199021 0.12889436 0.08993596 -0.009477556 0.21396652
-0.12285039 0.087376624 -0.20259973 -0.12427491 0.2150827 -0.15909797 0.04442048 0.13720363
-0.22957751 0.19701174 -0.23980096 -0.22961533 0.10428718 0.05252716 0.02295044 0.1674492
0.09963101 -0.025692165 -0.15987429 -0.0713546 -0.11339784 0.109751344 0.049082637 0.18809566
-0.054116637 0.11584446 0.095970124 0.22598213 -0.0027569532 0.0076676905 -0.17927933 -0.24343374
0.10092279 0.13317657 0.22199604 0.21939039 0.10208592 0.021211177 0.17566371 -0.22627062
-0.09141511 0.006305963 0.0032846332 -0.049084395 0.18229213 -0.12738627 -0.2442976 0.04985583
-0.015178144 -0.074810624 0.012061924 -0.23105088 -0.06427273 0.0870021 -0.07515988 0.050361216
0.0026020706 0.22797433 -0.08024344 0.19368383 -0.17168504 0.21202278 0.16229758 -0.2356782
0.1630623 -0.065879524 0.104258 -0.19684052 -0.057794362 -0.03201142 -0.070812374 -0.079549015
-0.15536585 0.057652265 0.08975941 0.13341743 -0.075292885 0.21765652 -0.08967164 0.102321625
-0.06944379 -0.16553131 -0.24147281 -0.20476913 -0.017576426 0.13283855 -0.19429061 0.0039125383
0.124855995 0.20635712 0.07798281 -0.24594018 -0.04113376 0.22846681 0.1858868 0.2287103
0.009248048 -0.08004984 -0.22784767 0.17621976 -0.15226293 0.097848475 0.17308754 0.17879254
-0.18823293 0.15573794 0.24837193 -0.1297079 -0.14132354 0.24177858 0.1009863 -0.2327784
0.10147089 0.09512678 -0.05862251 0.03308323 -0.23696649 -0.019830495 0.11926451 -0.10966849
-0.017098874 -0.16509011 0.11541113 0.2040559 -0.065199494 0.11213833 0.075083315 -0.114608794
-0.041658103 -0.22624764 -0.09442997 0.2389209 0.11604574 -0.08875498 -0.009609789 -0.050622195
0.18481311 -0.12196684 -0.117967576 0.23138592 -0.1370132 -0.1493291 -0.15231934 0.2233201

encoder.encoder_layer.self_attn.out_proj.bias f4 [16]
00000000: 0000 0000 0000 0000 0000 0000 0000 0000
00000010: 0000 0000 0000 0000 0000 0000 0000 0000
00000020: 0000 0000 0000 0000 0000 0000 0000 0000
00000030: 0000 0000 0000 0000 0000 0000 0000 0000
0.0 0.0 0.0 0.0 0.0 0.0 0.0 0.0
0.0 0.0 0.0 0.0 0.0 0.0 0.0 0.0

encoder.encoder_layer.linear1.weight f4 [16, 16]
00000000: aa93 58be 06ed 73be 768f 0b3e f4e6 283e
00000010: 8406 dbbd bc4a 833d 60c0 ee3d fcc7 72be
00000020: f47a cbbd 940f 81bd 82d1 193e c0da e2bb
00000030: 5c92 6f3e 4471 1e3e 341b e4bd 582e eabd
00000040: e4ec 8c3d 2e44 58be 8864 b93d 00f8 723e
00000050: 40ff e33b d062 02be 002d fa3d f63a 45be
00000060: 54cb 70be bcf2 523e 10f6 f8bc 2880 523e
00000070: 1452 11be 38b7 963d dcde e13d 5cdd 733e
00000080: 708d 783e 0014 f73a 300b 223e f4b1 cd3d
00000090: 9831 653e 6c9f 1cbe b623 5d3e 70ea 053d
000000a0: 3889 6fbd 8007 6cbd 1c04 f63d 70e5 59bd
000000b0: 6ad8 2dbe 98b0 43be 5087 613e 8c55 95bd
000000c0: bc15 1d3e a688 1a3e 6ef7 423e 00bb e2bd
000000d0: b613 63be 3e6f 14be c609 07be 2071 4dbe
000000e0: 80ae 893b 784c 0dbe 0056 9bbb a49c 17be
000000f0: 84c8 a43d a0b9 8c3c 1201 093e 849c a93d
00000100: 28b2 143d a818 b03d a60a 263e ecb2 e93d
00000110: 3828 213e bc29 b63d 7ab5 01be 88a2 9f3d
00000120: 5690 443e a42d 90bd 289f 3ebe 803a 5ebc
00000130: 60b2 2f3c 00a7 03bb 004b ce3b 78cc 183d
00000140: 4cf4 69be 0082 633a ca14 553e c81c bb3d
00000150: c0d3 f33d 485f 413d 0088 9dbc 06f0 3bbe
00000160: c200 7f3e 10b8 a63c 04d1 2bbe 2a45 4abe
00000170: 5c86 553e a02c 51be c04e bcbb 86c7 6ebe
00000180: 76f1 02be 30b6 e53c e076 e9bd 886a e2bd
00000190: 3620 06be f2f1 31be 0c92 02be 24da 17be
000001a0: 84b0 a03d 8c6d 443e 0c7e f0bd a8fe 1dbe
000001b0: 081e 65bd f047 60bd 1026 77be 4454 3abe
000001c0: def5 0cbe 4886 773e d0e3 3bbd c431 2cbe
000001d0: 085b 92bd 7047 983c 6c77 973d 84b2 44be
000001e0: 8aea 1c3e 34b0 1ebe aa8e 083e a6e2 46be
000001f0: 7c1d 6abe 98d0 1a3d 646f 573e 48f8 533e
00000200: 3a84 3dbe 0c89 abbd 3a5c 153e 04b1 c83d
00000210: e020 eb3c 94ed 6abe 24e4 643e fcfe 65be
00000220: 18da 323d d06b f63d fc1a 7fbe e034 303e
00000230: 5e7b 05be b04c c03d f290 7bbe 1ea7 7bbe
00000240: 1030 d0bd d052 843c 8c75 123e 4c7a e6bd
00000250: 6806 0c3d 0014 49bb 781b 173d 606c 833d
00000260: 9037 543e e8c6 16be 842c cdbd 18b3 55bd
00000270: 483d 7e3d ac76 db3d 4458 d03d ba35 18be
00000280: ac9a cb3d 8603 76be d01f c1bc a4b9 b43d
00000290: 7429 00be 5683 493e 6c08 3bbe 6cda 2abe
000002a0: aaf7 2abe a05c 07bd a809 47be 4c15 4b3e
000002b0: 105f 683e bc4d bfbd 4808 67be 0061 0a3b
000002c0: 10ea b3bc fe32 393e 5249 343e 0494 373e
000002d0: 8012 b5bc 58cb 6fbd b025 ed3c bc1d 3ebe
000002e0: 8c43 0b3e 0288 2abe f2f3 1f3e 6834 5bbe
000002f0: 649d ed3d 2c31 9c3d 2077 5ebe f09f 3abd
00000300: f009 3fbd d2ee 7bbe f468 533e 7462 da3d
00000310: c453 dcbd a8ff 6ebe c26a 43be 803c fb3c
00000320: ea79 70be 587d 26bd 3841 9dbd 4413 743e
00000330: 58da 703e 084d 8c3d 2036 463e d4ef c5bd
00000340: 7acc 7abe 5014 e3bd 0216 663e 8898 21be
00000350: 7a70 5d3e 9016 54bd c056 b53d f46a a83d
00000360: 4048 f53b 1ee2 3abe e893 af3d d821 093e
00000370: 50f0 c63c 5c4e cb3d fe74 023e 1835 a53d
00000380: 96c3 473e cea6 0c3e 6c70 d6bd d42c f03d
00000390: 3041 9bbd 2807 5a3d 9abd 283e 20a9 77bd
000003a0: 8233 0bbe bc77 97bd 48e5 243d a252 5abe
000003b0: c064 9ebb 0878 87bd 58b6 d63d f41f f23d
000003c0: b8e6 32be 8a1a 223e e42e 6abe 2812 97bd
000003d0: d05e ffbc 60a4 f43d 506f 60bd 00a2 ad3b
000003e0: dceb 923d 429e 67be baea 39be 129d 0a3e
000003f0: 32fd 053e b879 1fbd 607a 06bc b0b0 63be
-0.2115008 -0.23820886 0.13628945 0.16494352 -0.10694602 0.06410739 0.11657786 -0.237091
-0.09935561 -0.063017994 0.15021327 -0.0069230497 0.23395675 0.15472895 -0.11138001 -0.114346206
0.06881121 -0.21119758 0.09052378 0.23727417 0.0069579184 -0.12733006 0.12215614 -0.19260773
-0.23515064 0.20600408 -0.03039077 0.205567 -0.14191467 0.07359165 0.11028835 0.2381491
0.24272704 0.0018850565 0.1582458 0.100437075 0.223822 -0.1529519 0.21595654 0.03269428
-0.05848047 -0.05762434 0.120125026 -0.053197324 -0.16977087 -0.19110334 0.22024274 -0.072917074
0.15340322 0.1509119 0.190397 -0.11070824 -0.22175488 -0.1449556 -0.13187322 -0.20062685
0.00420171 -0.13798702 -0.0047404766 -0.14805847 0.08046058 0.017178357 0.13379315 0.08281806
0.036302716 0.08598453 0.16215 0.1141108 0.15737998 0.08894679 -0.12666884 0.07794672
0.19195685 -0.07039955 -0.18615401 -0.013563752 0.01072368 -0.0020088553 0.006295562 0.03730437
-0.22847098 0.00086787343 0.20808712 0.09136349 0.119056225 0.047210008 -0.019229889 -0.1835328
0.24902633 0.02035144 -0.16778952 -0.19752946 0.20852035 -0.2042718 -0.0057466924 -0.233183
-0.12787423 0.028040975 -0.11399627 -0.110554755 -0.13098225 -0.17377451 -0.12751025 -0.14829308
0.07846168 0.19182414 -0.117427915 -0.15429175 -0.055936843 -0.054756105 -0.24135613 -0.18196207
-0.13765666 0.24172318 -0.045871556 -0.16815859 -0.07146269 0.018588752 0.07395825 -0.19208723
0.15323845 -0.15496904 0.13335672 -0.19422397 -0.2286281 0.037796587 0.21038586 0.2070018
-0.18507472 -0.08375749 0.14585963 0.09799388 0.0287022 -0.22942191 0.22352654 -0.2246055
0.04366502 0.12032282 -0.24912637 0.1720767 -0.13035342 0.09389627 -0.24567011 -0.24575469
-0.10165417 0.01615277 0.14302653 -0.11253795 0.034185797 -0.0030682087 0.03689143 0.06417155
0.2072432 -0.14724314 -0.10018256 -0.05217275 0.06207016 0.10715994 0.10173085 -0.14864245
0.09941611 -0.24024782 -0.02357474 0.08824471 -0.12515813 0.19679007 -0.18264931 -0.16684884
-0.16696039 -0.03304732 -0.19437277 0.19832343 0.22692513 -0.093409985 -0.22561753 0.0021114945
-0.021962196 0.18085858 0.17606094 0.17927557 -0.022103548 -0.058543533 0.028948635 -0.1856603
0.13599986 -0.16653445 0.15620402 -0.2140671 0.116022855 0.07626566 -0.2172513 -0.045562685
-0.046640337 -0.24602821 0.20645505 0.1066331 -0.107581645 -0.23339713 -0.19083694 0.030668497
-0.23484007 -0.04064688 -0.07678455 0.23835474 0.23520792 0.0685063 0.19356585 -0.09664884
-0.24492064 -0.11087859 0.22469333 -0.15780842 0.21624938 -0.05177933 0.08854437 0.08223525
0.0074854195 -0.1825032 0.08573133 0.13391817 0.024284512 0.09927055 0.12739941 0.080667675
0.19508204 0.13735506 -0.104706615 0.117273 -0.07580793 0.05322948 0.16478577 -0.060464025
-0.13593867 -0.073958844 0.040257722 -0.21320584 -0.0048337877 -0.06614691 0.10483998 0.11822501
-0.17470825 0.15830436 -0.2286945 -0.0737651 -0.03117314 0.119454145 -0.054793656 0.005298853
0.07173893 -0.22618964 -0.18155947 0.1353648 0.13084868 -0.03893444 -0.008207887 -0.2223537

encoder.encoder_layer.linear1.bias f4 [16]
00000000: 94a0 0e3e 9abb 4f3e 288e 713e 5846 673d
00000010: 1030 acbd 8015 19bb b642 15be 6084 9d3d
00000020: 90bb 60bd 20a3 293d cc93 50be d46b 9d3d
00000030: 0e81 6c3e 30bb 803c e895 223e f25c 7dbe
0.13928443 0.20286408 0.23589385 0.05646357 -0.08407605 -0.0023358762 -0.1457623 0.07691264
-0.054866374 0.041415334 -0.2036888 0.07686582 0.23096105 0.015714258 0.15877497 -0.24742487

encoder.encoder_layer.linear2.weight f4 [16, 16]
00000000: 28c3 3c3d 9029 093e 1821 a93d c8c6 573d
00000010: 90d6 d13d 3cb9 b03d 3424 85bd 64e1 ebbd
00000020: 087c 443e 0098 1fb9 0048 1bba 88b4 10bd
00000030: cc1c 5f3e 98eb 08bd be85 31be 880f cbbd
00000040: 5a69 4f3e 16a5 743e 4427 613e 181e c7bd
00000050: ae8c 003e 3296 68be 1084 c53c f0d9 a73d
00000060: 8092 11be fcf7 fb3d 5234 6c3e 9899 77be
00000070: f856 a23d 9068 c4bd a841 eabd 408b 903b
00000080: 9471 ccbd 9094 063d b40c 46be 54e5 0a3e
00000090: c0ca 99bd bc16 8b3d 14e3 e43d 6076 c8bc
000000a0: c2d7 72be 18d0 643d e0f9 a03c 7872 92bd
000000b0: 005c a53a f46f f1bd 6ae9 2dbe 7a09 553e
000000c0: 4e70 793e 9093 d5bd eae0 463e 04c9 523e
000000d0: b2e0 13be ece9 e2bd 4069 84bd 8c1d 8c3d
000000e0: ba94 2c3e d08b 4c3d e083 71bc 1a11 2d3e
000000f0: f88c a83d f8fb 09be 40ae 71be dab0 273e
00000100: 26f2 4ebe 02b9 48be e240 60be d0fe f13c
00000110: 3091 013d 806c 323e 8842 653e 50c7 073d
00000120: 38dc 1a3d 9073 d63c 5866 1ebd 08aa c53d
00000130: fe56 623e 4204 40be 00a8 443a 6658 2b3e
00000140: 00bd 943b 40e3 9e3b 4427 e8bd 6049 2d3d
00000150: 6459 603e 30b3 593e 2499 d1bd 38c0 67be
00000160: 8083 85bb 8451 cabd 2082 ff3d b026 7abd
00000170: 94bd 323e b866 97bd f8fe c43d 0eea 21be
00000180: 003d eb3c ac5a 553e bec1 1b3e 2e2c 55be
00000190: aa29 493e 9e16 1d3e 60ae b7bc 2eff 493e
000001a0: 18b7 4e3e a085 07be c07f b1bc b887 ba3d
000001b0: 7e7e 60be c023 d2bd 9896 1c3e 0890 33be
000001c0: 8019 85bd 60aa 3ebc a8d2 2a3d 067c 783e
000001d0: 3075 35be ec5d 77be 8c63 553e 0a7b 2ebe
000001e0: 2ca5 c13d 9076 be3d 2255 35be 00d1 05bc
000001f0: 82a1 543e 7c44 533e 68f5 b0bd 90e2 e8bd
00000200: 00d1 d8bc 785c 82bd c82e 7b3e 4464 c1bd
00000210: 6044 70bc f8eb edbd cc4c be3d 5a08 36be
00000220: 002d 2b3d 602a a2bc 788f dbbd b863 7e3e
00000230: b881 0c3e d4b5 f33d 009c 10be 2c43 973d
00000240: 3e7b 5bbe 00e1 993a 00e8 d939 b0b2 98bd
00000250: c87c edbd 94e8 b33d 0c3e 713e c811 563e
00000260: 6c78 343e cad1 2d3e 0069 33bb 2862 293e
00000270: 1eed 18be f01c 523e e4e4 7c3e f6ce 52be
00000280: 8a14 22be 94f7 9cbd c062 fc3b c0bd c93c
00000290: 90c5 573e c084 91bd aa21 563e 50bf aebd
000002a0: 6058 f5bd 5c47 c93d a012 503d 4222 5a3e
000002b0: 7694 6c3e f419 59be d6ef 713e 7802 75bd
000002c0: 3a7c 49be b0b3 55bd 4290 7fbe c6db 2abe
000002d0: 1cff 82bd a07a 573e c0f7 223c 4018 813b
000002e0: 7a85 183e 4028 20bc c445 5f3e b0a8 8bbc
000002f0: f401 543e c8c7 19bd 2048 e73d 7042 5e3d
00000300: 30da 9c3c 1a78 02be 1a09 01be 92a5 133e
00000310: 8c32 54be 6c6f e9bd 129e 513e e086 433d
00000320: 12c4 58be 3813 42be 0096 06bd 563f 043e
00000330: e428 243e e8c7 6bbe 6402 783e ec5a ff3d
00000340: 9872 de3d d453 01be ea11 1ebe e069 79bc
00000350: 3e14 1c3e 60c6 8dbd 5093 20be 100f 293d
00000360: f851 46bd 18cd 72be 9424 0dbe 1406 fabd
00000370: 500e c9bc 86bd 52be 84c4 e63d 4200 2cbe
00000380: 20ff 7bbe eeb3 683e c83c 2dbe 94ee 1dbe
00000390: a8c2 40be d82b 4fbd cc0d 1e3e 80e3 b83b
000003a0: 18de 6dbe 0268 6a3e a023 df3d 44f7 41be
000003b0: a283 213e 605b e6bd d866 fdbd 1c12 63be
000003c0: ba5b 423e 8084 41bb e0ad 1abe 8077 5dbe
000003d0: 505f 773d c024 9a3c 40be 40be a8e3 ed3d
000003e0: b4b3 d4bd 6060 3abd 6850 b7bd 804d ba3b
000003f0: 1414 32be a0c5 1abe 7e35 3abe 7c51 6e3e
0.046084553 0.13394761 0.08258265 0.052679807 0.10246003 0.08629081 -0.06501046 -0.11517599
0.19187939 -0.00015220046 -0.00059235096 -0.035328418 0.21788329 -0.033427805 -0.17336175 -0.09915072
0.20255032 0.238911 0.21987635 -0.09722537 0.12553665 -0.22713545 0.024110824 0.08195865
-0.14216042 0.12303159 0.23066834 -0.24179685 0.07926744 -0.09590256 -0.11438304 0.004411131
-0.09982601 0.032856524 -0.19340783 0.13564044 -0.075093746 0.067914456 0.11176124 -0.024470508
-0.23715118 0.055862516 0.0196504 -0.071507394 0.0012615919 -0.117889315 -0.16983572 0.20804396
0.24359247 -0.10428536 0.19421735 0.20584494 -0.14441183 -0.11079773 -0.06465387 0.06841573
0.1685361 0.049938023 -0.014740914 0.16901055 0.08230013 -0.13475025 -0.23601627 0.16376057
-0.2020956 -0.19601825 -0.21899751 0.02954045 0.031632602 0.17424202 0.22388661 0.033149064
0.037807673 0.026178151 -0.03867182 0.096515715 0.22103497 -0.18751624 0.00075018406 0.1673294
0.004539132 0.0048488677 -0.11335614 0.042306304 0.219091 0.21259761 -0.102342874 -0.2263192
-0.004074514 -0.09878829 0.12475991 -0.06107205 0.17455131 -0.07392639 0.09618944 -0.15811941
0.02871561 0.2083537 0.15210626 -0.20817634 0.196448 0.15340659 -0.022422016 0.1972625
0.20187032 -0.13234568 -0.021667361 0.091079175 -0.21923253 -0.10260725 0.15291822 -0.17535412
-0.06499004 -0.0116373 0.041704804 0.24266061 -0.17720485 -0.24156922 0.20838755 -0.17039123
0.09455332 0.09299958 -0.17708257 -0.008167505 0.20764735 0.20631593 -0.086405575 -0.11371338
-0.026466846 -0.06365293 0.24529564 -0.09442952 -0.014664739 -0.11617273 0.092919916 -0.17776623
0.041790962 -0.019795597 -0.10720724 0.24842727 0.13721359 0.11899915 -0.1412201 0.07385859
-0.21433732 0.0011740029 0.0004156232 -0.07455957 -0.11596066 0.08784595 0.23558825 0.2090522
0.17624062 0.1697456 -0.0027375817 0.1654135 -0.14934203 0.20518851 0.2469669 -0.20586762
-0.15828148 -0.07664409 0.0077022016 0.024626613 0.21071458 -0.07105398 0.2091128 -0.08532584
-0.11979747 0.09828064 0.050799012 0.21302131 0.23103508 -0.21201307 0.23626646 -0.059816808
-0.19676295 -0.052173316 -0.24957374 -0.166854 -0.063963145 0.21042871 0.0099467635 0.0039396584
0.14894667 -0.009775221 0.21803957 -0.01704821 0.2070387 -0.037544042 0.112930536 0.05426258
0.019147009 -0.12741128 -0.12601128 0.14418629 -0.20722407 -0.11398205 0.20470455 0.04773605
-0.21168545 -0.18952644 -0.032857895 0.12914786 0.16031224 -0.23025477 0.24219662 0.12468514
0.10861701 -0.12629634 -0.15436521 -0.0152229965 0.15242097 -0.06922603 -0.15681195 0.04127413
-0.048418015 -0.2371105 -0.13783485 -0.122081906 -0.024542958 -0.2058011 0.11267951 -0.16796973
-0.24609041 0.22724888 -0.16917717 -0.15423042 -0.18824255 -0.050578922 0.1543495 0.0056423545
-0.23229253 0.22891238 0.10895467 -0.1894198 0.1577287 -0.11247897 -0.123731315 -0.22174877
0.18980303 -0.002952844 -0.1510539 -0.21627617 0.06039363 0.018816352 -0.18822575 0.116156876
-0.10385838 -0.045502067 -0.08950883 0.0056855083 -0.17390472 -0.1511445 -0.18184468 0.23273271

encoder.encoder_layer.linear2.bias f4 [16]
00000000: e077 1fbd f699 7d3e 640e e6bd 0c7f c3bd
00000010: 801e de3c 9cd1 113e 12dd 293e c8c3 1cbd
00000020: b453 b4bd 2400 04be 5aa9 44be 7662 463e
00000030: 10c9 543e 62b8 16be a0a7 cb3d b08b a33c
-0.03893268 0.24765763 -0.112332135 -0.09545717 0.027114153 0.14240116 0.16588238 -0.03827265
-0.088050276 -0.12890679 -0.19205227 0.19373497 0.20779824 -0.14718774 0.09944081 0.01996407

encoder.encoder_layer.norm1.weight f4 [16]
00000000: 0000 803f 0000 803f 0000 803f 0000 803f
00000010: 0000 803f 0000 803f 0000 803f 0000 803f
00000020: 0000 803f 0000 803f 0000 803f 0000 803f
00000030: 0000 803f 0000 803f 0000 803f 0000 803f
1.0 1.0 1.0 1.0 1.0 1.0 1.0 1.0
1.0 1.0 1.0 1.0 1.0 1.0 1.0 1.0

encoder.encoder_layer.norm1.bias f4 [16]
00000000: 0000 0000 0000 0000 0000 0000 0000 0000
00000010: 0000 0000 0000 0000 0000 0000 0000 0000
00000020: 0000 0000 0000 0000 0000 0000 0000 0000
00000030: 0000 0000 0000 0000 0000 0000 0000 0000
0.0 0.0 0.0 0.0 0.0 0.0 0.0 0.0
0.0 0.0 0.0 0.0 0.0 0.0 0.0 0.0

encoder.encoder_layer.norm2.weight f4 [16]
00000000: 0000 803f 0000 803f 0000 803f 0000 803f
00000010: 0000 803f 0000 803f 0000 803f 0000 803f
00000020: 0000 803f 0000 803f 0000 803f 0000 803f
00000030: 0000 803f 0000 803f 0000 803f 0000 803f
1.0 1.0 1.0 1.0 1.0 1.0 1.0 1.0
1.0 1.0 1.0 1.0 1.0 1.0 1.0 1.0

encoder.encoder_layer.norm2.bias f4 [16]
00000000: 0000 0000 0000 0000 0000 0000 0000 0000
00000010: 0000 0000 0000 0000 0000 0000 0000 0000
00000020: 0000 0000 0000 0000 0000 0000 0000 0000
00000030: 0000 0000 0000 0000 0000 0000 0000 0000
0.0 0.0 0.0 0.0 0.0 0.0 0.0 0.0
0.0 0.0 0.0 0.0 0.0 0.0 0.0 0.0
